3DBall/models/actor_3dball_ddpg_model.pth (torch_old, 30956 bytes, 14 tensors)

fc1.weight f4 [64, 8]
000000 ef 3d b1 3d 86 7e fa bf c5 01 08 be 71 32 b1 3e
       0.08654391 -1.9569862 -0.13281925 0.34608796
000010 ea 6b 02 3f 50 a2 70 be 11 5e 9a be a5 fc aa be
       0.50945914 -0.23499417 -0.30149892 -0.33395877
000020 ba 97 55 3e 79 a6 67 be 63 42 59 3e 66 59 e2 3e
       0.2085866 -0.22622098 0.21216731 0.4420883
000030 57 14 ea 3d dc e0 87 3e bb 6a a8 3d cd ae e8 3e
       0.11429661 0.26538742 0.08223482 0.45445862
000040 84 9e 74 3f a2 11 53 3f f3 54 96 be 0e 90 e9 3d
       0.95554376 0.8244878 -0.29361686 0.114044294
000050 1c ff 5a 3d b5 1e 46 bf 38 16 82 be 6a 8d a8 3e
       0.053465948 -0.77390605 -0.25407577 0.3292039
000060 9c 90 59 c0 f0 e6 30 3f 72 25 16 3f 7a 8c bf bd
       -3.3994513 0.6910238 0.58650887 -0.09352966
000070 92 50 38 3e 0c 5e 52 3f f5 3c d0 be e5 6b a2 3d
       0.17999485 0.82174754 -0.40671507 0.079307355
000080 f0 89 82 3f 8b bd 0e c0 58 fb a5 bc 5e 89 2d 3e
       1.0198345 -2.2303188 -0.020261452 0.16946933
000090 1e f9 37 3f 84 3a ea bd 01 25 9f be e5 41 d3 3d
       0.718645 -0.11436942 -0.3108292 0.10315303
0000a0 0f f7 65 3f e3 2e d9 bf 60 94 18 be 87 07 6e 3d
       0.89830106 -1.6967434 -0.1490035 0.058112647
0000b0 58 d6 19 3f 03 31 b8 be d5 5b b3 bd 60 4d 52 3e
       0.6009269 -0.35974893 -0.0875775 0.20537329
0000c0 7b 80 a9 3e da 7b 20 c0 f4 5d bc bd dc fb 69 3e
       0.33105835 -2.5075593 -0.09197608 0.22849983
0000d0 56 a0 fd 3e fe 37 ea bd 96 05 67 be ef bf 4c be
       0.4953639 -0.11436461 -0.22560725 -0.19995092
0000e0 ee df 05 3e 45 ea 23 40 cb e4 ea 3e c4 f2 a5 3e
       0.13073704 2.5611737 0.4587768 0.32411778
0000f0 bb ec f4 be ec 8c b1 3e df f0 3e be 33 77 98 3b
       -0.4783686 0.34677827 -0.18646573 0.0046528815
000100 ae 6b 81 3f e3 d7 10 bf 96 4f 9e 3c 37 de b1 3e
       1.0110986 -0.56579417 0.019325059 0.3473985
000110 12 77 1d be 91 2d 84 3e 80 ca 12 3f 77 a8 18 bb
       -0.15377453 0.25816014 0.5734024 -0.0023293772
000120 41 68 9f 3f 05 b8 30 c0 f3 6d bf be 4b 6e b6 3d
       1.2453691 -2.7612317 -0.37388572 0.089077555
000130 38 e6 16 bf 47 e6 50 bd 60 e0 d9 be 0b 6f 18 bf
       -0.58945036 -0.05100086 -0.42553997 -0.5954444
000140 1d b6 96 3f e5 8d 41 40 f3 39 84 3e 6e 85 fd 3d
       1.1774327 3.0242856 0.25825462 0.12378965
000150 d0 91 11 bf f3 e9 5e 3e 8a be 7a be 15 f9 9c be
       -0.5686312 0.21768932 -0.24486747 -0.30658785
000160 ce 16 c6 3e 5e c8 8a 3f a3 e2 10 bf 5b c7 81 3e
       0.38689274 1.0842397 -0.5659582 0.2534741
000170 43 23 e7 3d 99 5a e0 be 50 df 09 bf 11 79 93 bd
       0.112860225 -0.4381912 -0.5385637 -0.07200826
000180 d7 2e 0c 3f d6 ef 9a 3f bd 46 f5 3e 01 85 ab 3a
       0.5475897 1.2104442 0.47905532 0.0013085903
000190 9a d0 a9 3e 09 51 01 3f 78 0a 90 be c5 ea 4e 3e
       0.33166963 0.50514275 -0.28132987 0.20206745
0001a0 17 c1 b4 bf 74 1c 17 bf 17 42 49 3e f0 47 e7 3d
       -1.4121426 -0.5902779 0.19654118 0.11293018
0001b0 aa 2a 6e bd 24 34 af 3e e3 2b 48 3f f4 ce e9 be
       -0.058146156 0.34219468 0.78191966 -0.45665705
0001c0 1b cc 4a 3f c2 8f 0b 3f 5f 18 e3 bc c4 89 db 3e
       0.7921769 0.5451623 -0.027721582 0.42878544
0001d0 a7 20 2a 3e e3 04 08 be e0 03 90 be 5e 35 2a 3f
       0.16614018 -0.13283114 -0.28127956 0.6648768
0001e0 03 89 a2 3e 29 57 58 3f 5e 4c 0e 3d 7b ac b1 3d
       0.31745157 0.84507996 0.0347408 0.08675476
0001f0 6d 03 c0 3e c0 2d ea be 6b 98 20 bd dc 2d e4 3e
       0.37502614 -0.4573803 -0.039207857 0.44566238
000200 78 be 53 be 05 9a 34 40 d9 84 20 3e 4d e5 b5 3e
       -0.20678127 2.8219006 0.15675677 0.35526505
000210 d3 b5 ae bb 1c ba 7f bd f7 31 4d be f7 fa 01 3f
       -0.0053317337 -0.062433347 -0.20038591 0.50773567
000220 26 b7 0f 40 01 1a 55 be 32 79 06 3f d6 a9 77 3b
       2.2455535 -0.20810701 0.5252868 0.003779044
000230 b5 ca 1c be 02 93 b7 3d 34 73 1d bb 22 c4 8c 3e
       -0.15311702 0.089635864 -0.0024024965 0.27493387
000240 a6 56 dc bf 30 f4 34 3f 05 2c 29 be 8c 89 58 3e
       -1.7213943 0.706851 -0.16520698 0.2114622
000250 7f d3 e2 bc 27 77 de bb 8a af e6 be 45 6f 2b 3f
       -0.02768874 -0.0067891064 -0.450558 0.6696666
000260 b9 59 b9 3e 1c b4 81 3f a4 5d 60 be 62 e8 5f 3e
       0.36201265 1.013309 -0.21910721 0.21865991
000270 79 af 30 be e6 25 eb be bf 9e c3 be 44 80 d8 3e
       -0.17254438 -0.45927352 -0.3820705 0.4228536
000280 1f 5e d0 3e 03 b3 4e 40 18 cb 0c bc 07 71 e9 3d
       0.4069681 3.229676 -0.008593343 0.113985114
000290 a1 99 ac 3e d5 85 05 3e 61 d8 25 be 90 5f 25 3f
       0.3371096 0.13039334 -0.16195823 0.6459894
0002a0 f5 a9 8d bf d2 a8 5a c0 26 67 a1 3d c5 07 2e 3b
       -1.1067492 -3.416554 0.07881002 0.0026554924
0002b0 58 7f cf be fc 9a 17 3e 5a 3c 80 be 90 47 6a bf
       -0.40526843 0.14805216 -0.25046045 -0.91515446
0002c0 ae 7c 87 bf 3e 40 84 3e 2d 52 9d bd 5e 17 bc 3e
       -1.0584924 0.25830263 -0.076816894 0.36736578
0002d0 b8 e1 d1 bc cc ee 8d 3e ac 89 19 3e d7 a5 1f 3e
       -0.025620326 0.2772125 0.14993924 0.15590607
0002e0 ba c6 e1 3f c0 26 09 be 1f da 94 be 48 76 b7 3e
       1.7638772 -0.13393688 -0.29072663 0.3583243
0002f0 04 fc 85 be a9 0f 28 bf 36 1e 19 bf c8 fd c1 3e
       -0.26168835 -0.65648896 -0.59811723 0.37888932
000300 89 f3 a1 3f 8c 4a 06 c0 a7 c7 20 be 4b 81 86 3e
       1.2652446 -2.0983 -0.15701161 0.26270518
000310 c3 a1 04 bf ca 70 74 3d 27 e6 b8 be e3 ba 0d be
       -0.5180933 0.059677877 -0.36113092 -0.13840823
000320 53 cc 4a 3f b3 b7 53 bf 4a 63 68 3e e6 1a 04 3f
       0.79218024 -0.8270218 0.22694126 0.51603544
000330 20 75 dd 3d 9d 3c 1d 3b 76 39 f5 bd d4 5e d8 be
       0.108133554 0.0023992427 -0.119738504 -0.42259848
000340 27 89 1f be f4 84 f5 be cd 39 19 3d 0a 46 b7 3e
       -0.15579663 -0.47952998 0.03740864 0.35795623
000350 33 68 53 3e 49 60 77 3e 06 38 bd be 8e e3 d5 3d
       0.20645218 0.24157824 -0.36956805 0.10443793
000360 63 2c 60 3f ac 60 1c 40 09 8d a7 be d3 1c 91 3e
       0.8756773 2.4434004 -0.3272479 0.28342304
000370 6c ae 45 3d 32 1e 06 bf 39 11 b2 3d c3 b0 ce 3e
       0.048262045 -0.52389824 0.08694691 0.40369233
000380 67 e6 9c bf f6 6d 3c 40 65 07 de 3c a4 c2 64 3e
       -1.2257813 2.9442115 0.027103135 0.22339875
000390 92 25 ee be 96 dd 7d 3d 59 e3 31 bd 17 08 43 be
       -0.4651304 0.0619789 -0.043429706 -0.19046055
0003a0 e6 92 ff 3e 8b 49 52 c0 38 f2 96 3c 37 10 18 3e
       0.49916762 -3.2857387 0.018426046 0.14849935
0003b0 5b 55 b3 3d b8 32 9a 3d d3 ca 94 be 68 8e 7b be
       0.08756515 0.07529205 -0.29060993 -0.24566042
0003c0 04 00 05 c0 88 cb 0d 3f c6 42 20 3f 33 23 2e 3d
       -2.078126 0.5538869 0.6260189 0.042514037
0003d0 db b5 05 3b 01 c2 00 3f 78 e8 6d be 59 89 99 be
       0.0020402584 0.50296026 -0.23233211 -0.299876
0003e0 fb ec a4 be cc 67 90 3f c2 b5 c1 3e 25 4c f3 3e
       -0.32212052 1.1281676 0.37833983 0.4751903
0003f0 95 73 4a 3e 9e e2 79 3d f1 97 9c be cb 82 88 3e
       0.19770654 0.061007135 -0.30584672 0.26662287

fc1.bias f4 [64]
000000 1b 7f dd 3c ad 0f 28 3f 4b f8 c2 3e 80 b9 9a 3e
       0.027038148 0.6564892 0.38080058 0.3021965
000010 3b e4 bb bd d2 88 d3 bd 68 89 7d be 41 be 02 3e
       -0.09174391 -0.10328831 -0.24759448 0.12767889
000020 bb ea 89 3e 4d 6d a8 3e ff 97 fc bd 37 fa 96 3e
       0.26936898 0.3289589 -0.123336785 0.29487774
000030 eb b7 1c 3e f1 cd e8 3d 4c e8 e7 3e 36 51 6d 3e
       0.15304534 0.11367405 0.45294416 0.23175511
000040 02 be 22 3e 30 bb b8 3d 1a cd 51 3e 4d 4f 9a 3e
       0.15892795 0.09020078 0.20488396 0.30138627
000050 a6 e6 e9 3d 87 2c 97 3e 9c 67 8f 3e f6 03 c3 3e
       0.11420946 0.2952616 0.28008735 0.3808896
000060 e5 20 b0 3e 50 b7 09 3f 70 80 29 3e b6 57 db bc
       0.34400097 0.5379534 0.16552901 -0.026775222
000070 1e cb 19 be 91 54 12 3e 2c fe cb 3e 30 24 b4 3e
       -0.1501889 0.14290072 0.39842355 0.3518386
000080 5a 77 dd 3d 38 62 6c be 9e 2c 60 be 3d 61 11 3f
       0.1081378 -0.23084342 -0.2189202 0.56789
000090 bb 9e d8 3d 18 5c d9 3e ec 81 89 3e 35 b4 bf 3e
       0.105771504 0.42453074 0.26856935 0.37442175
0000a0 4f 60 05 3f 44 65 0b 3e 78 7c b3 3e 4e 8a eb 3e
       0.5210008 0.13612849 0.350559 0.46003956
0000b0 a4 81 8f 3d 15 4e e1 bd 8e 83 f2 3d d3 2b d6 3d
       0.07007149 -0.11001221 0.11841498 0.104575776
0000c0 f5 39 99 3e b0 16 73 3c 1d de 99 3e 4d f0 d4 3e
       0.2992703 0.014836952 0.3005227 0.41589585
0000d0 d2 74 cd 3e c6 4e da 3e 23 d7 01 be 01 3b b4 3e
       0.4012819 0.42638224 -0.12679724 0.35201266
0000e0 da 32 97 3e d2 39 0e 3e 7e e3 0f 3e 35 f9 81 3e
       0.29530984 0.13889244 0.14051625 0.25385442
0000f0 02 d9 09 3d 72 6b 34 3e ad 32 f9 3d 5e 2c a6 3e
       0.03365422 0.17619112 0.12167869 0.32455724

bn1.weight f4 [64]
000000 c7 45 46 3f 18 11 37 3f 79 7c 9b 3f 28 da 32 40
       0.7745022 0.7151046 1.2147361 2.7945652
000010 19 4a b7 3f f0 b0 9f 3f 83 50 9a 3f 8f 0f ba 3f
       1.4319488 1.2475872 1.205582 1.4535998
000020 26 67 65 3f 6d 24 ca 3f b4 2e d3 3f d8 d0 ba 3f
       0.8961052 1.5792366 1.6498628 1.4594984
000030 ff e3 fb 3f e8 7c 8b 3f a3 1f 36 3f 2a 73 0c 40
       1.9678954 1.0897493 0.71142024 2.194529
000040 81 f9 45 3f af 1d c8 3f bd be 73 3f b1 8f ad 3f
       0.7733384 1.5634059 0.9521292 1.3559476
000050 06 df 8f 3f 8e a8 26 40 19 b5 76 3f b1 22 e5 3e
       1.1239936 2.6040378 0.96370083 0.4475303
000060 ea 09 59 3f eb 7c 7e 3f 20 5d ff 3e f7 2f 72 3f
       0.8478075 0.9940936 0.49875736 0.9460444
000070 00 b1 9b 3f ac b4 49 3f 3e 1f c5 3f bc 50 99 3e
       1.2163391 0.7879131 1.5400159 0.29944408
000080 ab 8d 12 3f 44 f9 0d 40 42 81 be 3f 19 c8 73 3f
       0.5724742 2.218339 1.4883196 0.952272
000090 27 81 da 3f ac e9 76 3f b6 58 a8 3f ee ba 31 3f
       1.7070664 0.96450305 1.3152072 0.6942586
0000a0 86 43 0b 3f d4 6e 95 3f 1b 0a 82 3f ba d9 a5 3f
       0.5439991 1.1674447 1.0159334 1.295707
0000b0 aa 5f a9 3f 6b c5 b6 3f e8 1f 54 3f eb 34 e5 3f
       1.3232319 1.4278997 0.82861185 1.7906774
0000c0 08 8b b6 3f 2e 9c 65 3f 76 3c 9f 3f 24 cf a0 3e
       1.4261179 0.89691436 1.2440326 0.31408036
0000d0 e6 f0 7e 3f dd 80 68 3f 72 80 9c 3f 11 c3 08 3f
       0.9958633 0.9082163 1.2226698 0.5342265
0000e0 a4 24 8f 3f 0a 6b 27 3f 5f 0e 1d 3f 8c 19 ca 3f
       1.1183057 0.65397704 0.61350054 1.5789046
0000f0 ff 82 6d 3f 59 27 97 3f d3 cc af 3f f3 f6 50 3f
       0.9277801 1.1808883 1.3734382 0.81626815

bn1.bias f4 [64]
000000 ce f7 ef be 7c e1 f9 be 8e 18 53 be b9 d1 a1 3e
       -0.46868747 -0.48804843 -0.20614836 0.31605318
000010 26 09 85 be 00 90 ee be 41 fb 9e be fc d0 77 bd
       -0.25983542 -0.46594238 -0.31051067 -0.060502037
000020 18 88 00 bf b3 ff 7c 3d 5a ae bf bd c4 07 8c 3e
       -0.5020766 0.06176729 -0.09359427 0.27349675
000030 9b e2 31 3c eb 31 ba be e0 9e 6e be e5 c1 1b 3e
       0.01085725 -0.3636621 -0.23302794 0.15210684
000040 52 02 36 be e1 78 76 bb 54 27 1b bd be 0c d5 be
       -0.17774323 -0.003760867 -0.037879303 -0.41611284
000050 71 dc 47 be 42 f3 9d 3e 25 f0 c5 be 3c d8 1f bf
       -0.19517685 0.30849653 -0.38659778 -0.6243932
000060 4a 3e ba be 39 02 69 be 55 11 1c bf 31 13 8a be
       -0.36375648 -0.22754754 -0.60963947 -0.26967767
000070 d3 20 53 be 15 20 d5 be 50 33 4d 3e f5 f0 49 bf
       -0.2061799 -0.4162604 0.20039105 -0.78883296
000080 8c 33 ac be 71 8f dd 3d 7c 99 1c be 41 28 e5 bd
       -0.33633077 0.10818375 -0.15292925 -0.111893184
000090 c0 88 02 3e 18 77 ba be a7 c0 c1 3d e5 e6 f9 be
       0.12747478 -0.36418986 0.09460574 -0.4880897
0000a0 b0 c5 af be a3 2d 15 be de bd 27 be 7a fb 78 be
       -0.3433051 -0.1456819 -0.16381022 -0.2431468
0000b0 0f 54 c6 bd 76 79 5b be 2a 14 cd be 45 3e cc 3e
       -0.09684002 -0.21433052 -0.40054446 0.39891258
0000c0 8f 53 c3 be 2a 51 57 be 7b 33 41 be 54 82 52 bf
       -0.38149688 -0.21027055 -0.18867294 -0.82230115
0000d0 f7 51 8b be c0 ee 61 be c7 c7 aa be 65 1b 26 bf
       -0.27210972 -0.22063732 -0.33355543 -0.6488555
0000e0 42 c2 5a 3d d1 a7 02 bf 2a a3 16 bf 3b 2a 05 3e
       0.053407915 -0.5103732 -0.5884272 0.13004391
0000f0 77 fe c8 be d8 71 5d 3e 3e 8e 15 3e d8 55 eb be
       -0.3925664 0.21625459 0.14605042 -0.4596393

fc2.weight f4 [64, 64]
000000 84 94 e7 3e 6c 0c 0a 3f eb 8d 06 be e3 20 41 3f
       0.45230496 0.53925204 -0.13140075 0.75440806
000010 94 e2 86 3e ca f1 d8 3e b7 cf 95 3e a1 8d 1a 3d
       0.2634474 0.4237197 0.29260036 0.037732724
000020 6f 14 97 3e 33 af 46 be 57 bc a1 be 32 13 03 3e
       0.29507777 -0.1940277 -0.31589004 0.12800291
000030 6f a5 96 3d 18 6c 43 3c fd 00 2e 3f 18 6e ba 3e
       0.07355773 0.011927627 0.6797026 0.3641212
000040 25 ec ed 3e 2e 40 0b 3e 9b aa 4f bc 78 52 c0 3e
       0.46469226 0.13598701 -0.012674953 0.3756292
000050 8c bd 26 3f ce f8 ce 3e da 4d 73 3e 7e 4c 02 3c
       0.65132976 0.40424198 0.23760167 0.0079528075
000060 77 d9 d2 3e b5 06 47 3e 8d c1 23 bd f9 dd 68 bb
       0.41181538 0.19436152 -0.039979506 -0.0035532697
000070 0c 2c d2 be d3 9d f4 3e 6e 26 fd 3e 4f 43 da 3e
       -0.4104923 0.4777666 0.49443382 0.42629477
000080 d3 c0 48 3e e1 39 91 3d df 34 ef be 96 53 fe 3d
       0.19604807 0.07091118 -0.46720025 0.124182865
000090 bc ef 96 be ad de 98 3e 93 3d fd 3e 83 9c 13 be
       -0.29479778 0.29857388 0.4946104 -0.14415173
0000a0 70 5f 70 3e 23 f9 8f be 4e ef 4f 3f aa c1 96 3d
       0.23473907 -0.28119764 0.81224525 0.07361157
0000b0 15 9f 05 bf 39 fd 82 3e d7 3e 81 3e b2 fe c6 3e
       -0.52195865 0.2558382 0.25243255 0.38866192
0000c0 2f 8e cd 3e 78 aa 1a 3e 98 e0 a3 3e 9f 3d a8 3d
       0.4014754 0.15104091 0.3200729 0.08214878
0000d0 1d 4e cd 3e b4 ac 61 3f 4e ac bb 3d 23 4e f8 3c
       0.40098658 0.8815415 0.09163724 0.030310696
0000e0 76 2f eb 3e c7 62 29 3f 03 2f 31 be 76 f4 ec 3e
       0.45934647 0.6616635 -0.1730309 0.4628026
0000f0 61 76 da 3e fd 46 fc 3e 89 e4 58 3e 63 ae c1 3e
       0.4266844 0.4927291 0.21180929 0.3782836
000100 4e f9 38 bd c2 c0 b2 3e e0 75 ba 3e b1 76 66 bf
       -0.04515963 0.34912688 0.36418056 -0.9002486
000110 ed a5 85 3f 04 f6 e6 3e 5e 02 ae 3e a7 d7 0a bf
       1.0441262 0.4510957 0.3398618 -0.5423531
000120 2b 70 f5 3d 1e 90 43 3f a2 eb 06 bf 79 c2 0a 3e
       0.11984285 0.7639178 -0.527033 0.13550748
000130 7d 39 c2 3d 8a e6 e2 be da 5d af 3e 66 6c cb 3e
       0.09483621 -0.44316512 0.3425129 0.3973114
000140 fd 6c ea 3e 46 fe f4 3e eb 0a 21 3e 40 38 7e 3f
       0.45786276 0.47850245 0.15726821 0.9930458
000150 eb 6a db 3e 03 fb 39 3f a2 00 f1 3c c1 ae 18 3f
       0.4285501 0.7264864 0.029419247 0.59641653
000160 1d 58 91 3e 2d f8 ac 3e f4 db 4f 3f 9d 55 b1 3e
       0.28387538 0.33783093 0.81194997 0.3463563
000170 9b e9 7c bf 8b dc d7 3e d4 d0 c7 be f6 4d bb 3e
       -0.98793954 0.42160448 -0.3902651 0.36582917
000180 e6 c4 2f 3e 06 e8 1c 3f 15 c0 04 3f dc e2 81 3d
       0.17164955 0.6129154 0.51855594 0.06342098
000190 51 cd 25 3f bc 8e 4d 3e 74 db 60 3f 73 20 08 3f
       0.6476641 0.2007398 0.8783486 0.53174514
0001a0 8f 19 58 be 6d b6 23 3f 19 da 10 ba da 7d 96 3e
       -0.211035 0.63950235 -0.0005525663 0.29392892
0001b0 57 79 35 3f c9 90 5b bf 4a e1 07 3f bc b1 0f 3f
       0.70888275 -0.857678 0.5307814 0.56130576
0001c0 0c e8 00 3f a0 67 1b 3f 94 a5 8d 3e 84 99 48 3e
       0.50354075 0.60704994 0.2766539 0.19589812
0001d0 4d a5 0d 3d 2f 38 c8 be 87 fd 82 3d 6d 61 01 3f
       0.03458147 -0.39105365 0.06396013 0.50539285
0001e0 35 c3 85 be 6b 22 24 3e fb 2c f6 be 75 ba 0d 3e
       -0.26125494 0.16028754 -0.48081192 0.13840659
0001f0 f0 d0 20 3f bf dd 37 3e 28 a5 6b 3e ca ca cc 3e
       0.62818813 0.17955683 0.23012221 0.39998466
000200 c6 92 89 3e 90 4b eb 3d 8c 2b 05 bc 04 14 7e be
       0.26869792 0.11489022 -0.008128058 -0.24812323
000210 50 7f 90 bd d7 20 85 3e 7a e6 9e 3e 63 3c a0 3e
       -0.07055533 0.26001617 0.31035215 0.3129607
000220 13 e2 28 3f e3 fb 61 bd 1c a3 be 3e 72 df 25 3f
       0.6596996 -0.05517186 0.37233818 0.64794075
000230 72 db 40 3f 91 1f 5e bd 0b d3 eb 3e 44 31 92 3e
       0.75334847 -0.054229323 0.4605945 0.28553212
000240 0b 93 bd 3e 7d 5d 60 be 72 b2 0a 3f 74 d8 c8 3e
       0.37026247 -0.21910663 0.54178536 0.3922764
000250 4d 29 4b 3e 38 a7 85 bb 1b e3 aa bd 59 cd 99 bd
       0.19839974 -0.004078772 -0.08344098 -0.0750987
000260 f7 f4 9c 3e 7b fa e6 3e 1a 7c 04 3f 8f fb 22 bc
       0.30655643 0.45112976 0.51751864 -0.009947672
000270 b2 59 50 3e 2c 1e 1d 3f 75 1c 84 be 6e d0 e3 3e
       0.20346716 0.61374164 -0.2580296 0.44494957
000280 5d 20 c5 3e 11 bf c0 bd 3c 05 90 3b 22 17 f8 3e
       0.38501254 -0.09411443 0.0043951552 0.4845515
000290 95 99 5e be 25 e4 a6 bd 58 2d 4a be 65 2f b6 bb
       -0.21738274 -0.08148984 -0.1974386 -0.005559849
0002a0 78 d9 19 3e 76 b4 77 be 6f ef 8c 3e 67 70 5d 3e
       0.15024364 -0.24189934 0.27526423 0.2162491
0002b0 26 15 d5 3c 1f 4a 4c 3f 28 ad c6 be 6d ae 17 3f
       0.02601106 0.798006 -0.38803983 0.5925053
0002c0 b6 06 17 3f 4d e0 ef 3e 19 ab 04 3e c2 7c a7 3d
       0.58994615 0.46850815 0.12955894 0.081780925
0002d0 1f 51 01 3f 6a 7b 00 3e 14 91 b2 bd 66 2c 16 be
       0.50514406 0.12547079 -0.08719078 -0.14665374
0002e0 11 c1 e3 3e 1d b2 08 3f 20 e5 18 3f 14 aa 05 be
       0.44483235 0.5339678 0.59724617 -0.13053161
0002f0 b0 68 9c bd 9d 31 37 3f 9a 3c 33 bf 46 3c be bd
       -0.07637155 0.7156008 -0.70014346 -0.0928884
000300 7e 40 85 3e a5 1e a4 3e b4 ae c6 3e 78 97 a5 bf
       0.26025766 0.3205463 0.38805163 -1.293685
000310 15 24 a5 3f ea 4f 61 3f 43 aa 0f 3f 79 ce 31 bf
       1.2901636 0.88012564 0.56119174 -0.6945568
000320 19 ff e3 3d 8f e5 76 3f 33 0c 0d bf c8 e4 a9 bd
       0.111326404 0.9644403 -0.5509674 -0.0829559
000330 04 15 b2 3e 2a 7c d7 be 1d 89 80 3e 3e a4 19 3e
       0.3478166 -0.42086917 0.2510461 0.1500406
000340 69 3a 17 3e 2b da bc 3e 71 ad 96 3e 9e 61 75 3f
       0.14768375 0.368852 0.294292 0.95852077
000350 2b 0c 1a 3f b9 e2 64 3f 38 85 b2 3d b1 9f e2 3d
       0.60174817 0.8940845 0.08716816 0.11065615
000360 b9 6f 05 3f 2a 61 a9 3e bc 1c ac 3e ad 5d 7c 3e
       0.521236 0.33081943 0.33615673 0.2464511
000370 de 7d 32 bf ae 51 d6 3e e5 17 0c bf b2 68 19 3e
       -0.6972331 0.41859192 -0.5472396 0.14981344
000380 4c 11 ff 3e ee b2 59 3f eb 84 98 bc be 85 e7 bd
       0.49817884 0.8503865 -0.018618068 -0.11304806
000390 b6 8f 10 3f 04 cc 99 3e 90 03 53 3f c9 dc c7 3e
       0.56469285 0.30038464 0.8242731 0.39035633
0003a0 e8 30 24 be c4 dc 08 3f 15 6c 93 3c 76 a5 0f 3f
       -0.16034281 0.5346186 0.017995873 0.5611185
0003b0 36 e0 72 3f 55 32 45 bf 2c 97 eb 3e 0b 01 a9 3e
       0.9487337 -0.77029926 0.46013772 0.33008608
0003c0 7b 8d f9 3e 3c 79 8f 3e bb e4 46 3e e9 86 24 3e
       0.48740754 0.28022182 0.19423191 0.16067089
0003d0 61 3d 9f be 97 2b 02 bf 4c 36 fa 3e 5e 43 99 3e
       -0.31101516 -0.5084776 0.4886955 0.2993421
0003e0 29 7f 90 be ac 3a 12 3e 14 99 1a bf 15 c2 4c 3d
       -0.28222016 0.14280194 -0.6038983 0.04998978
0003f0 fe 35 2e 3f a3 df 11 3e d5 48 87 bd f7 a7 06 3f
       0.68051136 0.14245467 -0.066056885 0.52600044

fc2.bias f4 [64]
000000 e0 86 c6 3e 67 31 b8 3e a0 27 94 3e 74 11 ad 3e
       0.38774776 0.3597519 0.2893648 0.33802378
000010 7f a0 46 3e c8 f9 cb 3e a1 33 2f 3e eb 04 16 3e
       0.19397162 0.39839005 0.17109539 0.14650314
000020 f3 c8 b1 3e e1 f3 ef 3e 1e 60 26 3f 56 d6 c0 3e
       0.34723625 0.46865752 0.64990413 0.37663525
000030 36 9f 37 3f 20 3b 65 3e 9c fa b1 3e 54 e8 f3 3e
       0.7172731 0.22385836 0.34761512 0.4763819
000040 81 2c d6 3d 07 31 b5 3d a1 f4 d6 3d 3c 56 d0 bc
       0.10457707 0.08847242 0.10495878 -0.025431745
000050 a9 38 31 3f 9c e9 5f 3d 5b 1a 71 3e 70 55 fa 3e
       0.6922708 0.054666147 0.2354521 0.4889331
000060 34 0a 8b 3e 45 b4 3d 3f 6d 1c ca 3e ea d7 a3 3e
       0.27156222 0.74103194 0.39474812 0.32000667
000070 c5 fa 02 3f 33 3b c0 3e 37 6e 12 3f 6d c5 69 3e
       0.51163894 0.37545165 0.57199425 0.22829218
000080 ca ba 9b 3e cf 7b 15 3e 07 bd 6e 3e 87 12 d3 3e
       0.30415946 0.1459801 0.23314296 0.41225073
000090 d9 2c 1c 3f 20 3a 11 3e c2 0f b1 3e 0e 31 0f 3e
       0.6100593 0.14182329 0.34582335 0.13983557
0000a0 92 26 1d 3f 86 06 d6 3e 5d d3 b1 3e 27 0e e9 3e
       0.6138698 0.41801852 0.3473157 0.4551861
0000b0 32 a2 19 3e 05 01 17 3e 4b 5d 3d 3f 7a a2 85 3e
       0.15003279 0.14746483 0.7397048 0.26100522
0000c0 91 a6 21 3d d4 f4 a8 3e f2 c5 c5 3e 6e 07 39 3e
       0.03946549 0.3299929 0.38627583 0.1806924
0000d0 14 1a 12 3f d9 59 56 3e d9 25 ac 3e ef a3 77 3e
       0.5707104 0.20932712 0.33622625 0.2418363
0000e0 d1 c3 10 3e c9 3c 21 3e ae b1 ea 3d 85 c5 7a 3d
       0.14137198 0.15745844 0.11459671 0.061223526
0000f0 08 c4 dc 3e c1 0f b4 3e 51 df 02 3f 5e c3 c8 3e
       0.4311831 0.3516827 0.51122004 0.39211553

bn2.weight f4 [64]
000000 5d bc 47 3f 3f 62 9a 3f 30 90 62 3f 29 39 a9 3f
       0.78021795 1.2061232 0.8850126 1.3220569
000010 b0 a9 b5 3f 07 6b 6d 3f 69 10 88 3f ee 39 d4 3f
       1.419241 0.92741436 1.0630008 1.6580179
000020 5e 47 56 3f 7b 8a a1 3f f2 b4 02 3f bd 01 ba 3f
       0.8370265 1.2620386 0.5105735 1.453178
000030 d2 44 bd 3e ca fe af 3f 40 11 ad 3f e3 ba b8 3f
       0.36966568 1.374963 1.3520889 1.4432033
000040 98 cd ea 3f 89 12 01 40 e5 f3 89 3f cc d3 ef 3f
       1.8343992 2.0167563 1.0777556 1.873651
000050 b0 4c 0f 3f fd 7d 93 3f dc 5e 67 3f 59 1a fa 3e
       0.5597639 1.1522824 0.9037912 0.48848227
000060 b4 c4 ba 3f bd 8d 1d 3e ee 95 72 3f 79 08 b0 3f
       1.4591279 0.153861 0.94760025 1.3752586
000070 40 9a 44 3f e9 b0 76 3f 9d 5c 5b 3f f7 e9 81 3f
       0.76797867 0.96363693 0.8568819 1.0149525
000080 dc e1 ca 3f 9e fe c6 3f 8c 6a db 3f d4 b2 3a 3f
       1.5850177 1.5546453 1.714189 0.7292912
000090 50 40 02 3f f8 e1 94 3f 0a ed 74 3f 7a 61 98 3f
       0.50879383 1.163146 0.9567419 1.1904747
0000a0 b1 54 17 3f 23 28 c0 3f 97 34 45 3f 8e 6f 4c 3f
       0.59113604 1.5012249 0.7703337 0.7985772
0000b0 02 03 5b 3f fd 4a d8 3f 16 14 83 3e db bf ea 3f
       0.85551465 1.6897885 0.25601262 1.83398
0000c0 23 c1 d3 3f 97 2b a9 3f c5 46 b9 3f a6 b9 de 3f
       1.6543316 1.3216428 1.4474722 1.7400405
0000d0 53 a2 72 3f 56 71 51 3f 62 00 66 3f 0c 7b d6 3f
       0.9477894 0.8181356 0.89844334 1.6756301
0000e0 72 00 ba 3f 55 f2 9f 3f a8 e1 bb 3f 0d 7a ef 3f
       1.4531386 1.2495829 1.467824 1.8709122
0000f0 86 47 70 3f f3 7d ce 3f 19 dd d6 3f d9 7c 32 3f
       0.93859136 1.6132187 1.6786224 0.6972175

bn2.bias f4 [64]
000000 44 eb 74 be 25 9a b4 bd b6 f9 12 be fe af 2d be
       -0.23917872 -0.08818463 -0.1435307 -0.16961667
000010 94 8f 91 be 49 8a 25 be 58 a7 cf be 23 07 60 3b
       -0.28429854 -0.16166033 -0.4055736 0.0034183941
000020 b3 0c 5c be 9d 03 08 bc d3 8d 1c bf 4d 3d ee bd
       -0.2148922 -0.008301643 -0.61153907 -0.11632786
000030 20 ce 65 bf fa 26 44 3d c3 7e ff 3d 3d 9c 07 be
       -0.89767647 0.047888733 0.1247535 -0.13243194
000040 d7 94 16 3d d4 4e 7f 3c 78 68 dd be e4 c6 20 bc
       0.03676304 0.015582759 -0.43243766 -0.009813044
000050 7f b4 da be 62 73 39 be 42 cb b1 be 41 b1 18 bf
       -0.42715833 -0.18110421 -0.34725386 -0.5964547
000060 1a a8 ab 3b a1 21 58 bf 30 3c fd bc be 3f 0a 3e
       0.005238545 -0.84426314 -0.030912489 0.13500878
000070 da e2 28 be e3 f8 9e be 85 8e e9 be 88 fc a7 be
       -0.16492787 -0.3104926 -0.45616546 -0.32809854
000080 2a 9c bb be a7 db b9 3b d3 26 8d 3d 8c 2d 35 bf
       -0.3664258 0.0056719366 0.06892171 -0.70772624
000090 aa 6d 17 bf f1 10 e2 be 88 2f 62 bd 70 7c 08 be
       -0.5915171 -0.4415355 -0.05522111 -0.13328719
0000a0 b7 c5 d9 be 09 a9 b6 bd d4 86 11 be 91 5f 90 be
       -0.42533657 -0.0891896 -0.14211589 -0.2819791
0000b0 88 e9 19 bf 37 7a 64 3e d1 c3 66 bf 90 06 88 3e
       -0.60121965 0.22312246 -0.9014254 0.26567507
0000c0 b5 d2 8c bd 17 3a 00 3e 3d ca 59 be 2f 51 15 3c
       -0.06876127 0.1252216 -0.21268554 0.009113594
0000d0 ec 82 dd be 87 ca 8e be 60 5d 55 bd b8 96 26 bd
       -0.43263948 -0.2788889 -0.052091002 -0.04067108
0000e0 c5 ce ac bd 80 60 27 be 56 9a 8e be 8d 5d 97 3d
       -0.08437876 -0.16345406 -0.27852124 0.0739089
0000f0 e6 cb b8 be b9 a9 1e 3e 52 d9 9f bc 1b f5 f7 be
       -0.36093062 0.15494432 -0.019512806 -0.48429188

fc3.weight f4 [32, 64]
000000 2d 6f 3f 3e 33 bb 5a 3e 68 ac af 3e 75 ca 18 be
       0.18694754 0.21360473 0.34311223 -0.14920981
000010 1a e3 3d be d7 81 35 3f 7d f8 57 bf a0 ac c6 be
       -0.18543664 0.70901245 -0.8436354 -0.38803577
000020 55 0b 72 3f 18 04 c3 3e c2 24 97 3e a3 a5 bd 3e
       0.9454854 0.3808906 0.2952023 0.37040433
000030 ed 02 dc 3e fb f3 4e 3f 47 05 6c 3f 34 7b 2a 3f
       0.42970982 0.80841035 0.9219555 0.66594243
000040 b1 d3 f7 3e 1e f6 73 3f d7 56 9d be 7f ad 27 bf
       0.48403695 0.9529742 -0.30730316 -0.6549911
000050 12 dd 2a 3c af 1f ce be a2 5f 06 3f 69 25 8c 3c
       0.010428684 -0.40258548 0.52489674 0.017107682
000060 15 33 20 3e 48 b4 37 3e 32 8c 18 3e cf c2 2d 3e
       0.15644486 0.17939866 0.1489723 0.16968845
000070 d1 d3 50 3d aa 05 09 3f 4e 0d df 3e f4 96 15 3f
       0.050983254 0.5352427 0.43564838 0.5843346
000080 df 39 06 bf e8 ae 0c 3d 80 4b ee be a3 72 fb 3e
       -0.52432054 0.03434649 -0.46541977 0.49110898
000090 6d ea a0 3e 83 2a 3b bf 9b 99 da bd 19 91 06 be
       0.31428853 -0.7311174 -0.10673829 -0.13141288
0000a0 69 da 99 bd a0 e0 8c be d6 53 95 3e 23 6d 6d bf
       -0.075123616 -0.27515125 0.29165524 -0.92744654
0000b0 0a 42 01 3e 49 cd 4b be 02 d9 bf 3c 97 9b c6 be
       0.12622848 -0.19902529 0.023418907 -0.3879058
0000c0 1c ee 0f be f8 67 e5 be 93 43 5c bf ee 1a 40 be
       -0.14055675 -0.44805884 -0.8604061 -0.18760273
0000d0 65 9c 2f 3f c3 65 82 be bf 03 6a 3e fb 54 81 bf
       0.68598014 -0.25468263 0.22852992 -1.0104059
0000e0 7e 1e e7 3d fc 6b 88 be a2 df 2d be b1 34 e6 3e
       0.11285113 -0.26644886 -0.1697984 0.44962075
0000f0 8e c4 ee 3d ab a8 36 bf bf 1f 23 bf b3 00 a0 3e
       0.116585836 -0.71351117 -0.63720316 0.31250533
000100 25 2a 4f 3d e3 92 f6 3e 4e f3 c9 3b f1 bf b0 3e
       0.0505773 0.4815894 0.0061630374 0.3452144
000110 e3 71 e9 bd b7 e7 b8 be 4a 0d 26 3f 63 bf 30 be
       -0.11398675 -0.36114284 0.6486403 -0.17260508
000120 e3 56 25 bf 4d a0 d4 be 8b 36 e8 be 8a 4e 85 be
       -0.64585704 -0.4152855 -0.45354113 -0.26036483
000130 1a 6f 8c bd d8 2d 5c be 0a 51 a9 be b2 cc b5 bf
       -0.068571284 -0.21501863 -0.3306964 -1.4203093
000140 eb 55 09 3f 35 be 2a bf 54 c1 1c 3f 56 86 9c 3d
       0.53646725 -0.6669648 0.61232495 0.0764281
000150 6c 88 d2 bd 20 1b 6e 3f 3a 2e 17 3c 8d 6d 71 3e
       -0.10279927 0.9301014 0.00922733 0.23576947
000160 c4 7c 34 3f 61 3a c6 3e 1c 24 18 be ec 13 ce be
       0.7050288 0.38716415 -0.14857525 -0.40249574
000170 0d 5c 13 3e 01 56 0a be 65 39 b0 bd 05 06 c7 be
       0.14390583 -0.1350937 -0.08604697 -0.3887178
000180 e6 ec 84 3f 48 21 23 3f b8 9d 4f 3f fc 3e 3e bf
       1.0384796 0.6372266 0.81100035 -0.74314857
000190 a2 37 96 3d 95 5c 30 3f 06 6e 51 3f 88 a4 f3 3d
       0.0733483 0.6889127 0.8180851 0.11896616
0001a0 81 ea 1e 3d f0 f7 b0 3e c5 c3 a3 3a 90 fb 08 3e
       0.03879786 0.3456416 0.0012494257 0.13377213
0001b0 9e 1e e9 3e ac ff ae 3d 10 87 c7 3d 89 42 81 3d
       0.45531172 0.08544859 0.09742558 0.06311519
0001c0 da 43 a4 3f a8 7a 19 3f 03 17 8b 3f 05 7e 9d 3d
       1.2833207 0.59952784 1.0866398 0.07690052
0001d0 6f fc c9 bd ac 3d 5f 3e 72 f3 cd 3d e0 68 50 3f
       -0.09862601 0.2180087 0.10056199 0.81410027
0001e0 53 58 42 3f f4 17 3d 3f dd fd 59 3f af 0a b2 3e
       0.7591602 0.73864675 0.8515299 0.34773776
0001f0 7d fe 8d be 60 d8 b1 3f 7b 2e 24 3e f7 f3 85 3e
       -0.27733222 1.3894157 0.16033356 0.26162693
000200 5d 02 1a 3f 1a b0 c5 3e 62 72 00 be a9 b9 cb 3e
       0.60159856 0.38610917 -0.12543634 0.39790085
000210 e9 94 1e 3f ad 56 32 bd c3 80 a2 bd 0b 76 86 3e
       0.6194597 -0.04353969 -0.079347156 0.26261935
000220 e3 72 d6 3c 11 62 ed bd 76 0a 2f 3e fd d4 af 3e
       0.02617783 -0.1159097 0.17093834 0.34342185
000230 4f 93 ea 3d 4a b5 da bc 4a 6f 08 bf b4 fd 05 bf
       0.11453878 -0.026697773 -0.53294814 -0.52340245
000240 93 44 a1 3e 56 71 86 be 5c 40 91 3e 1c b8 55 3f
       0.3149763 -0.26258343 0.28369415 0.83484054
000250 a4 db b0 bc 4c c8 3a 3e c6 60 c4 3e 83 75 0d 3f
       -0.021589108 0.1824047 0.38355082 0.55257434
000260 9c cf ba 3d 9c 54 22 3e f9 56 1d 3f 17 46 98 3c
       0.091216296 0.15852588 0.61460835 0.018588109
000270 db a9 54 bd bc f2 8c 3e fe 32 35 3e 9e 39 03 bf
       -0.0519198 0.27528942 0.17695233 -0.5125979
000280 f3 15 0e 3f 34 0f 00 3f 57 c6 21 3f 66 0d 1b be
       0.5550224 0.500232 0.6319327 -0.1514183
000290 1b 49 7f 3e 09 72 c2 3e 70 87 a7 3e c5 98 46 3f
       0.24930231 0.37977627 0.32720518 0.7757686
0002a0 a0 c1 1f 3e 45 71 76 3f ab 95 dc bd d2 99 27 3c
       0.15601206 0.96266586 -0.107707344 0.010229545
0002b0 26 56 c1 3c d7 68 13 3f 93 34 97 bd 81 80 94 3f
       0.02360065 0.5758185 -0.073830746 1.1601716
0002c0 5c cf 52 3f 2f 05 0f 3f b5 94 8a bd 1a 19 78 3f
       0.82347655 0.55867285 -0.06766645 0.969133
0002d0 06 04 a1 3d 68 d8 f2 3e 64 2f e3 bd 5b 39 01 be
       0.078620955 0.4743073 -0.110930234 -0.12619536
0002e0 2a b6 0a 3e 52 2c 0e 3e 22 d4 c6 3e ee fb d6 be
       0.13546053 0.13884094 0.3883372 -0.41989082
0002f0 dd 51 2b 3e a7 33 23 3e 53 f2 58 3e cb ad 10 3e
       0.16730447 0.15937673 0.2118619 0.14128797
000300 f6 9f 24 3e 2d 32 7a 3e d7 2f 27 3e 8a ea 1d 3e
       0.16076645 0.24433203 0.16326843 0.15421501
000310 39 b2 bd 3e 56 a7 b7 bd ae 4f f1 3e 79 81 72 bd
       0.37050036 -0.08967464 0.47131103 -0.059205506
000320 10 5c 6b be 32 5f 11 bf e2 b6 80 be 2b 33 f6 3d
       -0.22984338 -0.5678588 -0.2513953 0.12021478
000330 bc 07 de bd 4c 54 af 3d 4f 94 81 be 4d 9f 2d bf
       -0.10841319 0.08561 -0.25308463 -0.678212
000340 6f 7d 26 3f 2f ea 7c be 57 5f 02 3f 2d 1c 4d 3e
       0.65035146 -0.24698709 0.5092673 0.2003028
000350 e2 50 3d be c5 a4 aa 3e c1 4f b8 3e d0 6b 0c 3c
       -0.18487886 0.33328834 0.35998347 0.008570626
000360 20 05 f8 3e 77 18 bf 3e 86 1f 32 bd 55 fe 87 3e
       0.4844141 0.37323353 -0.043487094 0.26561227
000370 87 c6 e9 3e dc 0b 30 bd a8 e0 df be 79 17 f2 be
       0.45659277 -0.04298006 -0.43726087 -0.47283533
000380 71 77 44 3f f0 0d 31 3f b0 3d da 3e 96 9a 29 bf
       0.76744753 0.6916189 0.4262519 -0.66251504
000390 5b 14 e9 3c 68 a4 af 3e 75 3f ba 3d 77 a7 c6 bd
       0.028452089 0.3430512 0.09094135 -0.0969991
0003a0 9b ed 32 3c f7 98 87 3e a3 03 4a bd 94 66 1d 3d
       0.010920907 0.2648389 -0.049319874 0.038427904
0003b0 94 8d 0f 3f d2 4c 02 be 24 09 3d be fe 05 69 bf
       0.56075406 -0.12724617 -0.18460518 -0.9102477
0003c0 b5 18 36 3f a7 6d bd 3e 5d 3e 60 3f 20 17 0b bf
       0.7113145 0.3699772 0.8759516 -0.5433216
0003d0 9a ef 93 be 5a db a3 3e 99 3d b2 3e 04 c9 6f 3f
       -0.2889374 0.3200329 0.3481262 0.936661
0003e0 59 07 29 3f d9 80 fe 3e 0e c1 52 3e 92 6a 8e 3e
       0.66026837 0.49707678 0.20581457 0.27815682
0003f0 ef 32 99 be da c2 88 3f ac 51 80 3e a6 29 8c 3e
       -0.29921672 1.0684464 0.2506231 0.27375525

fc3.bias f4 [32]
000000 02 71 14 3e f7 7b 10 3e 0e 13 4b bd c4 24 10 3e
       0.14496234 0.14109789 -0.04957872 0.14076525
000010 ed 9d 3e 3e 32 f0 5c 3e ac 22 1e 3d 22 cc 66 3e
       0.18614931 0.21576002 0.038607284 0.22538808
000020 b1 2b 54 bd 2a 4a c3 3d 86 72 fe 3d e4 d3 b0 3d
       -0.05179948 0.0953563 0.12424187 0.08634165
000030 77 f5 02 3e 9c be 3d 3e 29 ee 37 3e e7 ec ed bd
       0.1278895 0.18529743 0.17961945 -0.11617451
000040 ac 56 9b 3d 5a 5f 3d be e8 34 72 3e d2 9b 31 3c
       0.07584891 -0.18493405 0.23652995 0.010840373
000050 8b b4 91 3e ef 35 38 39 79 41 7f 3e ce 55 f7 3d
       0.28458056 0.00017567699 0.2492732 0.12076913
000060 be 4f 1c 3e f7 3d 0d 3e fd 38 22 be f3 ae a6 3e
       0.15264794 0.13793169 -0.15842052 0.3255535
000070 71 8b 60 3e 47 7b 10 bc 34 05 84 3e ba c4 aa bd
       0.21928193 -0.008818454 0.2578522 -0.08338304

bn3.weight f4 [32]
000000 af b2 61 40 aa 15 9b 40 15 0b 0d 40 9f 50 26 40
       3.526531 4.8463945 2.2038014 2.5986707
000010 5d 6d 31 40 06 de 2e 40 97 bc d8 3f 85 7d 0a 40
       2.7723 2.7323012 1.6932553 2.163911
000020 4a 74 51 40 c9 a7 99 40 d3 92 5c 40 37 68 8e 40
       3.2727227 4.8017316 3.4464614 4.4502215
000030 be 2e 30 40 e3 b5 0e 40 b2 df 59 40 61 a0 f9 3f
       2.752853 2.2298515 3.4042783 1.9502069
000040 38 07 24 40 f0 9d b7 3f 4e 1c 6c 40 b5 46 6d 40
       2.5629406 1.4345074 3.6892276 3.7074406
000050 3c f5 47 40 dc ee 1a 40 4c 16 88 40 46 a5 2e 40
       3.124343 2.4208288 4.252722 2.7288375
000060 34 59 fb 3f 79 22 56 40 ee 80 2a 40 7a 92 3b 40
       1.9636598 3.345854 2.6641192 2.9308152
000070 dd 69 38 40 65 e8 e0 3f 0c bf 31 40 7e ff ff 3f
       2.8814614 1.7570921 2.7772856 1.9999845

bn3.bias f4 [32]
000000 c6 f6 02 3f ea f2 15 3f 97 b0 46 3d b7 53 ac 3e
       0.51157796 0.5857378 0.048508253 0.3365762
000010 db dc 49 3e 82 7e 7b 3e aa 25 e9 3e ef 4b 1a 3e
       0.19713156 0.24559978 0.45536548 0.15068029
000020 d6 da 2c 3f 82 59 0e 3f e1 6f 14 3f 0c ab f0 3e
       0.6752142 0.5560533 0.57983214 0.47005498
000030 15 d2 3b 3f 18 42 79 3e e5 99 01 3f e2 22 17 3f
       0.73367435 0.24341619 0.5062545 0.590376
000040 a6 23 08 3f 18 cb ec 3d 63 c8 b5 3e c5 42 cf 3e
       0.53179395 0.115621746 0.35504445 0.4048063
000050 30 5a fc 3e b9 14 69 3e 84 8a 9a 3e 82 8d 05 3f
       0.49287558 0.22761811 0.30183804 0.5216905
000060 42 d7 a3 bd c1 6e a7 3e b4 6c e1 3e a7 38 18 3e
       -0.080000415 0.32701686 0.44028246 0.14865361
000070 ae 9e c0 3e 52 1a 09 bd 43 ee 4d 3e 72 1c 2f 3d
       0.37621063 -0.033472367 0.20110421 0.042751737

mu.weight f4 [2, 32]
000000 1d dd f0 3f 31 92 43 c0 e8 9f 3d bf 0a 14 d4 bf
       1.8817478 -3.0557978 -0.7407212 -1.6568615
000010 34 2e cd 3f 86 74 bb 3f cb de 89 3e 47 d9 a5 bf
       1.6029725 1.4644935 0.2692779 -1.2956933
000020 bd 41 01 c0 35 68 a3 be 5f 87 13 c0 2d ff 4b bd
       -2.0196373 -0.3191544 -2.3051374 -0.0498039
000030 3f 0f e3 be 09 89 fc 3e a3 d1 fe bd 8e 9b 6e be
       -0.4434757 0.493233 -0.12442329 -0.23301527
000040 03 7c eb be 2b 1e 2a bf 3d a2 01 40 db a3 3d 3e
       -0.4599305 -0.6645228 2.0255272 0.18519537
000050 cc bc ca 3f 82 3f 4e bf 80 04 14 40 da 06 a2 3f
       1.5838866 -0.80565655 2.3127747 1.2658341
000060 f0 19 95 bf e8 55 9f 3f 93 a3 5b bf 30 2c b8 3f
       -1.164854 1.2448092 -0.8579647 1.4388485
000070 8f 46 db 3e 4f 24 68 bf 6f 3a 6f 3f 1e 60 94 bf
       0.4282727 -0.906804 0.9344854 -1.1591833
000080 6c 71 8a bf 83 cd b4 3d a7 10 2a 3f 7c 47 ea bb
       -1.0815864 0.08828261 0.6643166 -0.007149635
000090 9e ce 97 3e 11 ce 5f 3f 77 47 66 bf 25 37 85 3e
       0.29649824 0.8742381 -0.89952797 0.26018634
0000a0 7d 70 b0 3e 6a 13 39 40 8e a5 08 be 0a 15 5a 40
       0.34460822 2.89181 -0.13344404 3.4075341
0000b0 16 f8 c4 bf cb df 7b 3f 82 ae e8 bf ec 95 88 bf
       -1.538821 0.98388356 -1.8178256 -1.0670753
0000c0 fb 15 b9 bf 61 8e bf bd b4 54 18 3f 05 a8 3d 40
       -1.4459833 -0.093533285 0.59504247 2.96338
0000d0 86 79 58 bf 19 99 80 bf f8 29 c6 3e 19 ae 44 bf
       -0.8456043 -1.0046722 0.38703895 -0.7682815
0000e0 25 9c 3d 3f 90 dc a6 bf ee 22 83 bf b2 ee 2c bf
       0.7406638 -1.303606 -1.0245035 -0.6755172
0000f0 77 a2 fa 3f bc 2e fc 3e d9 03 ab bf e1 cc db 3e
       1.958083 0.49254405 -1.3360549 0.42929748

mu.bias f4 [2]
000000 20 03 1d bf 3d ad 94 be
       -0.61332893 -0.2903842
