3DBall/models/critic_3dball_ddpg_model.pth (torch_old, 31492 bytes, 15 tensors)

fc1.weight f4 [64, 8]
0	0xc091a71d	-4.5516496
1	0x41325f3d	11.148252
2	0xbf628fbc	-0.8850057
3	0x3fdd6dda	1.7299149
4	0xbf689300	-0.90849304
5	0xbfb7e3b0	-1.436636
6	0x4082da63	4.0891585
7	0x3feac7e3	1.834225
8	0xc01bdbc1	-2.4352877
9	0x3f64bc49	0.893498
10	0xbf6940fb	-0.9111478
11	0xbf1aa3a9	-0.60405976
12	0xbea2fd73	-0.3183399
13	0xc044d054	-3.0752153
14	0xbf00de8d	-0.50339586
15	0xbfb1eeed	-1.3901039
16	0x3e2dd986	0.1697751
17	0x3f71bf76	0.9443277
18	0xbfb4ca5e	-1.4124258
19	0xbf2cfdbb	-0.6757466
20	0x3fb890f1	1.4419233
21	0xbfdede96	-1.7411678
22	0xbf14c57b	-0.5811383
23	0x4042d2ba	3.0441117
24	0xbe04d800	-0.12973022
25	0x403ac81c	2.9184637
26	0xbf2e109b	-0.6799409
27	0xbf4fc64d	-0.8116196
28	0xbf3a4980	-0.727684
29	0xc021d136	-2.5283942
30	0xbf5cdea5	-0.8627723
31	0xc05abe6b	-3.4178722
32	0xc17a3bcc	-15.639599
33	0xc06187f5	-3.5239232
34	0xc08a5d57	-4.323894
35	0x3f4bd414	0.7962048
36	0xbd9406e8	-0.0722788
37	0xc0379f9d	-2.869117
38	0xbacf7d2c	-0.0015830151
39	0xbe46370c	-0.19356936
40	0xbf8fb47d	-1.1226956
41	0x4092b1cc	4.5842037
42	0x3f13f1b8	0.5779071
43	0xbf90b566	-1.1305358
44	0xc01da09d	-2.462928
45	0xc03e814f	-2.9766424
46	0xbf9e7851	-1.2380468
47	0xc0f8570e	-7.760627
48	0xbf9598dc	-1.1687274
49	0x3f71ab66	0.9440216
50	0xbf8e8135	-1.1133181
51	0xbf1414b0	-0.57844067
52	0xbe728a46	-0.2368556
53	0xc02f197d	-2.7359307
54	0xbf0f2134	-0.5591004
55	0xbfabd51c	-1.3424411
56	0xc028f77e	-2.6401057
57	0xbf063221	-0.5242024
58	0xbfa7a59b	-1.3097414
59	0xbed55b42	-0.41671187
60	0x3d602a35	0.05472775
61	0xc045b759	-3.0893157
62	0xbea0c288	-0.31398416
63	0xbda8de9d	-0.08245585
64	0xc004f8d2	-2.0776868
65	0xc0eec2c4	-7.461275
66	0xbf2838a5	-0.6571143
67	0xbff7494e	-1.9319246
68	0xc0eccdd0	-7.4001236
69	0xbeb4d951	-0.3532205
70	0xbeef9155	-0.46790567
71	0xc0c48db4	-6.1422977
72	0xc078106b	-3.876002
73	0x417d00e2	15.812716
74	0xbfac7e50	-1.3476048
75	0x3f0cf23c	0.5505712
76	0x3ef606bb	0.4805201
77	0x405d3bf2	3.4567838
78	0xbfee60b4	-1.8623261
79	0xbfa81efc	-1.3134456
80	0x400b3f86	2.1757522
81	0xbcf76764	-0.030200668
82	0xc0162982	-2.3462834
83	0xbf06a4ee	-0.5259541
84	0x408281f7	4.078365
85	0xbec28ea9	-0.37999466
86	0xbf13653e	-0.5757636
87	0x410711c7	8.44184
88	0x4009d4cf	2.1536138
89	0x410891d4	8.535603
90	0xbf43f194	-0.76540494
91	0xbf416a86	-0.75553167
92	0x3f949bbc	1.1610026
93	0x41095f5a	8.585779
94	0xbfe3456a	-1.7755558
95	0xbfef0848	-1.8674402
96	0xc11dd6ee	-9.864973
97	0xc150a0f5	-13.039296
98	0xbf2d1745	-0.6761363
99	0xbf80c6b0	-1.0060635
100	0x402e0e33	2.7196167
101	0x400b0a36	2.1724982
102	0x3fd7be43	1.6854938
103	0x3fc92a06	1.571595
104	0x3f8d99b7	1.1062535
105	0xbf4287d4	-0.7598851
106	0xc0180432	-2.375256
107	0xbec84bdd	-0.3912038
108	0x402b3245	2.6749432
109	0xbfb00db3	-1.3754181
110	0xbeb60274	-0.35548747
111	0x40c1e593	6.059274
112	0xbff2f01d	-1.8979527
113	0xbedfa939	-0.43683794
114	0xbfa3bb72	-1.2791579
115	0xbedb15c9	-0.42790058
116	0x3d8a1625	0.06742505
117	0xc02fdf8a	-2.7480187
118	0xbedb8ad7	-0.42879364
119	0xbeccf82d	-0.40033093
120	0xbf8a6463	-1.0811886
121	0x3ffba28f	1.9658984
122	0xbf583c7b	-0.84467286
123	0xbf2c9972	-0.6742164
124	0xbf7d0f33	-0.9885132
125	0xc0409486	-3.0090652
126	0xbf2718af	-0.6527204
127	0xc05f1dd6	-3.486196
128	0xbfd48f6c	-1.6606269
129	0xbfaf8f41	-1.3715593
130	0xbfe46685	-1.7843786
131	0xbeb37957	-0.35053512
132	0x4001f77b	2.03073
133	0xbff85a59	-1.9402572
134	0xbeae6829	-0.34063843
135	0x4094421d	4.6330705
136	0xbfd9abbc	-1.7005534
137	0x3fc54daa	1.5414326
138	0xbf5c25b1	-0.8599501
139	0xbf181167	-0.59401554
140	0xbfacb6fa	-1.349334
141	0xc0545469	-3.317652
142	0xbf106155	-0.56398517
143	0xc08a191a	-4.315564
144	0xc0a6421e	-5.195571
145	0x416a2d12	14.6360035
146	0xbeee6327	-0.46560022
147	0xc015a16d	-2.3379776
148	0x40a54c8d	5.1655946
149	0xbfa2a507	-1.2706612
150	0xbf66bcba	-0.90131724
151	0x409c2037	4.8789325
152	0xbf835a3c	-1.0261912
153	0xbf15711d	-0.5837572
154	0xbfe521ac	-1.7900901
155	0xbed5c9d5	-0.41755548
156	0x3fd5b1ca	1.6694882
157	0xc0059571	-2.0872462
158	0xbebccf1c	-0.36876762
159	0x406e4c37	3.7234018
160	0xbf411971	-0.75429446
161	0x3e1469bb	0.14493458
162	0xbfc13f30	-1.5097408
163	0xbf161175	-0.5862039
164	0x3fd88cae	1.6917932
165	0xbff93691	-1.9469777
166	0xbefd7df8	-0.4951017
167	0x4076247b	3.8459766
168	0x40711f5a	3.7675385
169	0x408626f5	4.1922555
170	0xbf26f8e3	-0.6522352
171	0x3f581154	0.8440144
172	0xbfa84f66	-1.314923
173	0x3fe143ca	1.7598813
174	0x3f9d5449	1.2291347
175	0xbfc46d39	-1.5345832
176	0xc098f60c	-4.780035
177	0xc184ae13	-16.584997
178	0x3f87c943	1.0608295
179	0xbfc37552	-1.5270178
180	0xbf0b2ff6	-0.5437006
181	0x3eed75b8	0.46378875
182	0xc05fe378	-3.4982586
183	0xbe93434d	-0.28762284
184	0xbf95d747	-1.1706322
185	0xc173de35	-15.24175
186	0xbf1b90a4	-0.6076758
187	0x3eefcb42	0.4683476
188	0x40a0720a	5.013921
189	0x3f080413	0.53131217
190	0xbe9e38fb	-0.30902848
191	0x4032ce5c	2.7938452
192	0xc16cc28c	-14.797497
193	0x3fae523d	1.3618847
194	0x40bf244c	5.973181
195	0xbfd4c187	-1.662156
196	0x3f85b0c1	1.0444566
197	0x40d4a740	6.6454163
198	0xbec7e38b	-0.3904079
199	0x3dc74346	0.09729628
200	0xc0279749	-2.6186087
201	0x3f87235b	1.0557665
202	0xbf320a06	-0.69546545
203	0xbf247e23	-0.6425497
204	0xbf35065d	-0.70712835
205	0xc04b64fc	-3.1780386
206	0xbf0fbadc	-0.561445
207	0xc01ee6ec	-2.4828444
208	0xc012b35f	-2.292198
209	0x3f620a88	0.8829732
210	0xbf5a070f	-0.8516702
211	0xbf24c1fa	-0.64358485
212	0xbe448245	-0.19190319
213	0xc03c2cd7	-2.9402368
214	0xbf0a6c10	-0.5407114
215	0xbf673341	-0.9031258
216	0xc01a825e	-2.414207
217	0xbf060867	-0.5235657
218	0xbfa9cc18	-1.326541
219	0xbee45ae8	-0.44600606
220	0xbd55a792	-0.05216176
221	0xc047db6f	-3.1227682
222	0xbe982f92	-0.29723793
223	0xbe93f51d	-0.28897944
224	0xbfb6ea73	-1.4290298
225	0xbeb45465	-0.35220638
226	0xbfd0e998	-1.6321287
227	0xbef43213	-0.47694454
228	0x3f5e1cc2	0.8676263
229	0xc0283e54	-2.6288042
230	0xbe9b68c2	-0.3035336
231	0x40027ab5	2.0387394
232	0xc07645c8	-3.848009
233	0x3fab5c33	1.3387512
234	0xbebd1269	-0.36928108
235	0xbf221e41	-0.63327414
236	0xbf945e3f	-1.1591262
237	0xc05f096c	-3.48495
238	0xbf1a73f1	-0.6033316
239	0xc07402bb	-3.8126667
240	0x402b15ce	2.6732059
241	0x406bedc0	3.686386
242	0xbf5a595e	-0.85292614
243	0xbeba1a90	-0.3634839
244	0x3fabda27	1.342595
245	0x4056360a	3.3470483
246	0xc0056743	-2.0844276
247	0xc170d5a8	-15.052162
248	0xc138b58a	-11.544321
249	0xc0922db3	-4.5680785
250	0x3e582e6d	0.2111146
251	0xbfc1f77a	-1.5153649
252	0x3ce9a32e	0.028520193
253	0x3d733497	0.059376325
254	0xbf7ca86c	-0.9869449
255	0x3f1a75d7	0.6033606

fc1.bias f4 [64]
0	0x401ca587	2.447603
1	0x41092d62	8.57358
2	0x4110dccd	9.053906
3	0x41044b85	8.268437
4	0xc097c1ae	-4.7423925
5	0x40f94885	7.7901025
6	0x41076f73	8.464709
7	0x410a1996	8.631247
8	0xc04a241c	-3.158454
9	0xc05c47d9	-3.4418852
10	0x411760ef	9.461165
11	0x40b6f0ed	5.71691
12	0x4083d63e	4.1199026
13	0x41156eef	9.339583
14	0x4106aedd	8.417691
15	0x4104e7cb	8.30659
16	0x410ecebc	8.925472
17	0x4102e47e	8.180784
18	0xbd8e4ae2	-0.069478765
19	0x410fec85	8.995244
20	0x41123454	9.137775
21	0x4104d900	8.3029785
22	0x3c8fcce2	0.01755375
23	0xc096f8ae	-4.7178564
24	0xbfa61fd1	-1.297846
25	0x4106c89a	8.423975
26	0x410a17d4	8.630817
27	0x410bcb51	8.737138
28	0x411195b7	9.099051
29	0x4101cb99	8.112206
30	0x408089c5	4.0168176
31	0x411a9a27	9.662635
32	0x3f4da785	0.8033374
33	0x410db524	8.856724
34	0x410db52e	8.856733
35	0x410c46a1	8.767243
36	0xbf45bd83	-0.77242297
37	0x3ea87caf	0.32907626
38	0x4108c95d	8.549161
39	0xc0760a8b	-3.8443935
40	0xc03b39c3	-2.9254005
41	0xc0626322	-3.5373006
42	0x410d7e3d	8.84332
43	0xc09d39f9	-4.9133267
44	0x410bf77b	8.74792
45	0x410532fe	8.324949
46	0x3f64c934	0.8936951
47	0xc0827677	-4.076961
48	0x411bb906	9.732672
49	0x40330239	2.7970107
50	0x410ec74c	8.923656
51	0xc0078aad	-2.117839
52	0x410b434d	8.703931
53	0x4110d7e4	9.052708
54	0x4080af76	4.0214186
55	0x4109195b	8.56869
56	0x40edfca1	7.4370885
57	0xc04ea19c	-3.2286139
58	0x41094a0d	8.580579
59	0x410c5441	8.77057
60	0x410db7fb	8.857417
61	0x41120475	9.126088
62	0x3f0d602f	0.5522489
63	0xc0c9ca75	-6.305964

bn1.weight f4 [64]
0	0x405b8f4e	3.4306216
1	0x3e9b1895	0.30292192
2	0x3eb1c33b	0.34719262
3	0x3ed46f93	0.41491374
4	0x40dd45e1	6.91478
5	0x3da5bf19	0.080930896
6	0x3ec8a201	0.391861
7	0x3e4d75ac	0.2006442
8	0x40fc16e6	7.877795
9	0x402cd526	2.7005095
10	0x3ec4db03	0.38448343
11	0x400095bb	2.0091388
12	0x403a4dae	2.9109912
13	0x3e45bf24	0.19311196
14	0x3ed6970e	0.4191212
15	0x3e9ab2ce	0.30214542
16	0x3f0ea3de	0.5571879
17	0x3e4fe517	0.20302235
18	0x40f033fd	7.506346
19	0x3ea570fa	0.32312757
20	0x3e8bf544	0.2733556
21	0x402ae355	2.6701252
22	0x409846f5	4.7586617
23	0x40e88fec	7.2675686
24	0x40d89c87	6.7691073
25	0x3ead3947	0.33832762
26	0x3f185eac	0.5951946
27	0x3eb11d7b	0.34592804
28	0x3ebcbd00	0.36862946
29	0x3ea54431	0.32278588
30	0x3f32dd1d	0.6986864
31	0x40484e14	3.1297655
32	0x4078b170	3.88583
33	0x3ecf4a45	0.4048635
34	0x3ee4014e	0.44532245
35	0x4078b289	3.885897
36	0x40a9c3ef	5.3051677
37	0x404232c2	3.034348
38	0x3e91d66a	0.28483897
39	0x4085b2de	4.1780844
40	0x4080bd7e	4.0231314
41	0x40d96a94	6.79426
42	0x3eb445df	0.35209557
43	0x40ede2aa	7.433919
44	0x3e5b227e	0.21399876
45	0x3d520810	0.05127722
46	0x4042bbf8	3.0427227
47	0x40a27467	5.0767093
48	0xbd988336	-0.074469015
49	0x409acdd6	4.8376265
50	0x3e3f5ead	0.1868846
51	0x4120722b	10.027873
52	0x3e09a6fd	0.13442607
53	0x3ed7ddd7	0.42161438
54	0x3fd83634	1.6891541
55	0x3ed910ef	0.42395732
56	0x40211935	2.5171635
57	0x406f1075	3.7353795
58	0x3e9e8d35	0.30967107
59	0x3ee0df62	0.43920428
60	0x3ed49a1b	0.41523823
61	0xbb77a6e6	-0.0037788688
62	0x407d330b	3.9562404
63	0x411e832c	9.907024

bn1.bias f4 [64]
0	0xbf91902e	-1.1372125
1	0xbec6be17	-0.38816902
2	0xbed01aa0	-0.40645313
3	0xbf6fdd3a	-0.9369694
4	0x4014cf89	2.325167
5	0xbf8bdb67	-1.0926331
6	0xbf1d37f4	-0.614135
7	0xbf3b3d13	-0.73140067
8	0x3f821838	1.0163641
9	0x3f152ab8	0.5826831
10	0xbf8424d0	-1.0323734
11	0xbf688f46	-0.9084362
12	0x3f20a969	0.627585
13	0xbf84c541	-1.0372697
14	0xbf0b7546	-0.5447582
15	0xbf3bb55d	-0.73323613
16	0xbf51b31e	-0.81913936
17	0xbf6223b1	-0.8833571
18	0x4001ee8a	2.0301843
19	0xbf22c710	-0.63584995
20	0xbf11b950	-0.5692339
21	0xbf7456ef	-0.9544515
22	0x3f4e72ff	0.8064422
23	0x3fc311a4	1.5239758
24	0xbfa41da2	-1.2821543
25	0xbef1d404	-0.47232068
26	0xbf390e08	-0.72287035
27	0xbf15ed5b	-0.585653
28	0xbef57e77	-0.47948048
29	0xbf1433e1	-0.5789166
30	0x3ea621b5	0.3244759
31	0x3ff9c20c	1.9512343
32	0x3fafefaf	1.3745021
33	0xbecfeaf3	-0.4060894
34	0xbf29ae96	-0.6628202
35	0x3ec1c40c	0.37844884
36	0x4011ceb7	2.2782419
37	0xbf4fa8f6	-0.8111719
38	0xbf120d2c	-0.5705135
39	0x3eb99feb	0.3625482
40	0x3db0ef4a	0.08639391
41	0x3f164f73	0.5871498
42	0xbee6fba2	-0.45113856
43	0xbebdc889	-0.3706706
44	0xbf518de0	-0.8185711
45	0xbf196659	-0.59921795
46	0x4016b92d	2.3550522
47	0x3f153fe6	0.58300626
48	0xbe2e0271	-0.16993119
49	0x3f3b3874	0.73133016
50	0xbf27a2e8	-0.6548295
51	0x3f592fe5	0.84838706
52	0xbf1e1db6	-0.61764085
53	0xbee6de72	-0.45091587
54	0x3e6df597	0.23238216
55	0xbebc7b9a	-0.3681305
56	0xbe9b94d4	-0.30386984
57	0x3ecdc0f5	0.40186277
58	0xbf6109bd	-0.87905484
59	0xbf046925	-0.5172294
60	0xbf17b0fc	-0.5925443
61	0xbf5c3d9e	-0.8603152
62	0xbd913857	-0.07090824
63	0x3edd7665	0.4325439

fc2.weight f4 [64, 64]
0	0xbe7b3447	-0.24531661
1	0x3e98156e	0.2970385
2	0x3f991136	1.1958377
3	0x3e9aa089	0.30200604
4	0xbfabd9e7	-1.3425874
5	0x3f6e0f5d	0.9299219
6	0x3f02d770	0.5110998
7	0x3e7fe6f3	0.24990444
8	0xc007b0f5	-2.1201756
9	0x4022043c	2.5315084
10	0xbe847c16	-0.2587592
11	0xbe5ccae3	-0.2156177
12	0x408b83ec	4.3598537
13	0x3f087bba	0.5331379
14	0x3e3583cb	0.17726056
15	0x3f9628ca	1.1731198
16	0x3e348959	0.17630519
17	0x3eb2c6b0	0.34917212
18	0x403515dd	2.8294594
19	0xbeae4e2e	-0.3404402
20	0xbf14f9f1	-0.5819388
21	0x3f120f07	0.5705418
22	0xc06f0bcd	-3.7350953
23	0xc07f3d34	-3.9881105
24	0xc09a61b4	-4.8244267
25	0x3d730c73	0.059338044
26	0xbe756003	-0.23962407
27	0x3e468911	0.19388224
28	0xbd06b897	-0.032890882
29	0xbf1634ee	-0.58674514
30	0xbda0c689	-0.078503676
31	0x3e581ce1	0.21104766
32	0xbd3f029f	-0.04663336
33	0x3d5564e8	0.052098185
34	0x3ecf11ed	0.40443364
35	0xbf6e478a	-0.9307791
36	0x3e9a031d	0.300805
37	0x404375cf	3.0540655
38	0xbcb7f023	-0.022453373
39	0xbf178c56	-0.5919851
40	0xc0dc19b7	-6.878139
41	0xbfdcef4d	-1.7260529
42	0x3e1ecea2	0.15508512
43	0x40cb9341	6.3617253
44	0x3e929810	0.2863164
45	0x3dd9ce28	0.10635024
46	0x402033ab	2.5031536
47	0xc005b428	-2.0891209
48	0xbeb64175	-0.35596815
49	0x3ea563a6	0.32302588
50	0x3e28e1a3	0.16492324
51	0x3e90ec37	0.28305218
52	0xbdffb974	-0.12486544
53	0x3d9f756b	0.077860676
54	0x3fcec20c	1.6152968
55	0x3e64ef97	0.22357021
56	0x4010b227	2.2608736
57	0xc061e5d2	-3.529652
58	0xbdf31620	-0.118694544
59	0xbdf615aa	-0.12015851
60	0xbdf303af	-0.11865937
61	0x3e09c16b	0.1345269
62	0xbfaa421b	-1.3301424
63	0xc0baa5c8	-5.832737
64	0x40bf95d8	5.9870415
65	0x3dd19882	0.10234167
66	0xbed22d6b	-0.41050276
67	0x3f0e4b47	0.55583614
68	0xc02e60fd	-2.7246697
69	0xbeb93a32	-0.36177212
70	0xbe5689e2	-0.20951036
71	0x3d962dda	0.07332964
72	0xc0fe144d	-7.939978
73	0xbf45eee2	-0.7731763
74	0xbef5cbb2	-0.4800697
75	0x3fd9c61d	1.7013584
76	0xc030a3d3	-2.759999
77	0x3f0a1d07	0.5395054
78	0x3e6224be	0.22084329
79	0x3dadf43d	0.084938504
80	0x3fa17703	1.2614444
81	0xbe22f146	-0.15912351
82	0xbfb1dca0	-1.3895454
83	0xbe4cfd3c	-0.20018476
84	0xbf0a46fd	-0.5401457
85	0xbff9788d	-1.9489914
86	0x4109f016	8.621115
87	0x3fbbd135	1.467322
88	0xbfab9324	-1.3404279
89	0x3df93746	0.12168746
90	0xbec221ff	-0.37916562
91	0x3dc65dd2	0.096858636
92	0x3d2444fe	0.04010486
93	0xbf3ee385	-0.7456592
94	0xbe462ccb	-0.19353025
95	0xc0c09d98	-6.0192375
96	0xc0ca4506	-6.3209257
97	0x3e3e3559	0.18575038
98	0x3ece2071	0.40259126
99	0x403471a8	2.819437
100	0x40b3f725	5.623919
101	0xc08d75f1	-4.420647
102	0x3d8f17cc	0.06986961
103	0x4116b3a6	9.4188595
104	0xc0f1c499	-7.5552487
105	0x3f7e9dd1	0.9945956
106	0x3dbe1883	0.09282019
107	0x410cae23	8.792514
108	0x3e5cfc78	0.21580684
109	0xbc631b63	-0.01386151
110	0x40aa3323	5.3187423
111	0xc012b24b	-2.2921321
112	0x3917302d	0.00014418429
113	0xc049fd9e	-3.1561046
114	0xbd3354f3	-0.043782186
115	0x3ffa25da	1.9542801
116	0xbec528b8	-0.38507628
117	0x3e1af864	0.15133816
118	0xbf4ba60b	-0.79550236
119	0x3dbd5fcb	0.09246787
120	0xc02c2a9d	-2.690101
121	0x40d036ce	6.50669
122	0x3da5d3fd	0.08097074
123	0x3d0477c8	0.032340795
124	0xbe93b358	-0.28847766
125	0x3d2a1b5c	0.04153
126	0xc0ee2870	-7.442436
127	0xc0acbdd8	-5.3981743
128	0x3dae5822	0.08512904
129	0x3be358dc	0.006938083
130	0x3ed47680	0.41496658
131	0xbd9aa8f8	-0.075517595
132	0xc0ab496f	-5.352714
133	0x3f405a77	0.7513804
134	0x3d9e54a9	0.077309914
135	0x3db5cdeb	0.08877166
136	0xbf899cd4	-1.0750985
137	0xbf572407	-0.8403935
138	0xbec13bfa	-0.3774107
139	0x40aa293e	5.3175344
140	0xc045741b	-3.0852115
141	0x3f2cadc3	0.6745264
142	0xbe8491ae	-0.25892395
143	0x3efa5756	0.48894757
144	0xbd88f847	-0.0668798
145	0x3d25915d	0.040421832
146	0x412f3c03	10.952151
147	0xbdacb4d7	-0.0843293
148	0x3e18ed0e	0.14934179
149	0x40a84aa7	5.259113
150	0xc051999f	-3.2750013
151	0xc0c9efff	-6.3105464
152	0xbf43a0d1	-0.7641726
153	0x3e2edef1	0.17077233
154	0x3e8dd5f0	0.27702284
155	0xbc7364df	-0.0148555925
156	0x3e889140	0.26673317
157	0x3f199cc4	0.6000483
158	0x40592d64	3.3933954
159	0x3e74dac8	0.23911583
160	0x41080db6	8.503347
161	0x3dcc267c	0.09968278
162	0x3adc265a	0.0016796098
163	0xc0a218fe	-5.065551
164	0x411cfb08	9.811287
165	0x40c33b1d	6.100966
166	0x3dd03fff	0.10168456
167	0xc0850132	-4.156396
168	0x409db8ca	4.9288073
169	0x3fc8cd07	1.5687569
170	0x3df72739	0.12068028
171	0x4017b430	2.3703728
172	0xbe707337	-0.23481451
173	0xbd50a26d	-0.05093615
174	0xbf3274ab	-0.6970927
175	0x3ed7e679	0.42168024
176	0x3e7d4dd9	0.24736728
177	0x400510bd	2.0791466
178	0xbe051431	-0.12995984
179	0x3fb78c28	1.4339647
180	0xbe3f4ffe	-0.18682858
181	0x3de0a11a	0.10968228
182	0x40d3c0ac	6.6172695
183	0x3d271153	0.040788006
184	0x3fa62351	1.2979528
185	0xbdc328a0	-0.09529233
186	0x3d8b1fd4	0.0679318
187	0x3d872de1	0.066005476
188	0x3d8c1f8f	0.06841957
189	0xbcf80ce0	-0.030279577
190	0x4055f47b	3.343047
191	0x41187e7c	9.53088
192	0xbf9dce33	-1.2328552
193	0xbdd51abc	-0.1040549
194	0xbe6b2eb0	-0.22967029
195	0xbde81ff2	-0.11334218
196	0x407abd62	3.917809
197	0x3d5258c3	0.05135418
198	0x3f122db8	0.5710101
199	0x3d805656	0.06266467
200	0xbf5e4c2d	-0.86834985
201	0x3ff26e2d	1.8939873
202	0x3d9f0f1d	0.077665545
203	0xbf3bdfbb	-0.7338826
204	0xbea20197	-0.31641838
205	0xbd15084b	-0.036384862
206	0x3be07e22	0.0068509737
207	0x3dd42f77	0.10360616
208	0x3dadf56a	0.08494075
209	0x3d4ee4ad	0.05051105
210	0x40c71cff	6.2222896
211	0x3d903fa2	0.07043387
212	0xbb0e1496	-0.002167975
213	0xbfc1f346	-1.5152366
214	0xbe616700	-0.22011948
215	0x4030963e	2.75917
216	0x40278dba	2.6180253
217	0x3d49e376	0.04928919
218	0xbe8a6114	-0.2702719
219	0xbe334434	-0.17506486
220	0xbd9f3a2c	-0.07774767
221	0x3e3cb5cb	0.18428724
222	0x3dd4791a	0.10374661
223	0xbe84fa2c	-0.25972116
224	0xc0832f29	-4.099507
225	0xbd49ac7a	-0.049236752
226	0xbe9c35a1	-0.30509666
227	0xc06d20d8	-3.7051296
228	0x3fc39069	1.5278445
229	0xbef889a9	-0.48542526
230	0x3e0f0696	0.13967356
231	0xbf7815a1	-0.96908003
232	0x4012071a	2.2816834
233	0xbfce760e	-1.6129777
234	0xbe50f8ee	-0.20407459
235	0x4009d541	2.153641
236	0xbecb42a0	-0.39699268
237	0x3d0373ca	0.032092847
238	0x40208580	2.5081482
239	0xbf3f65a2	-0.74764454
240	0x3f59ba85	0.8505023
241	0xbfaa9eac	-1.3329673
242	0xbd4de58a	-0.050267734
243	0x40e13c2d	7.0385957
244	0xbdaf09f2	-0.08546819
245	0xbe2f0e23	-0.17095236
246	0x4007f169	2.1241095
247	0xbb529438	-0.0032131802
248	0x3d3abde7	0.04559126
249	0x402717bf	2.6108243
250	0xbde9dfed	-0.114196636
251	0x3e62ed21	0.2216077
252	0x3d836fc2	0.064178005
253	0xbe2ec9bc	-0.17069143
254	0xbff6ed3b	-1.9291147
255	0x40a7298d	5.223822

fc2.bias f4 [64]
0	0xc07a228c	-3.9083586
1	0x4085bf4d	4.179602
2	0xbf29422e	-0.6611661
3	0xc0a74d6f	-5.2282023
4	0x40a2c21f	5.0861964
5	0x40eaba00	7.335205
6	0x4070894f	3.7583807
7	0x409eba87	4.9602695
8	0xc0ddc81b	-6.930677
9	0xbfb994d0	-1.4498539
10	0x3fd441e5	1.658261
11	0xc075d6ca	-3.8412347
12	0x4026deaf	2.6073415
13	0x406c12a1	3.688637
14	0x4091f485	4.5610986
15	0x40cbfe73	6.3748107
16	0xc0a35e1d	-5.1052384
17	0x4112d478	9.176872
18	0x4097e0e0	4.7462006
19	0xc0f97a5f	-7.796188
20	0xc03a044f	-2.906513
21	0x3f94fa6a	1.163892
22	0xc0080ec6	-2.1259017
23	0xc0bf7867	-5.9834476
24	0xc11d33b4	-9.825123
25	0x40bc48fe	5.88391
26	0xc0b045df	-5.508529
27	0xbfe382c7	-1.7774285
28	0xc0d45f4c	-6.636633
29	0xbeef8ee1	-0.46788695
30	0x3f363e88	0.71189165
31	0x3f6d6581	0.9273301
32	0xc0c2e015	-6.089854
33	0xbf1c07ae	-0.6094922
34	0xc0d0cb5c	-6.524824
35	0x3ed371cf	0.41297767
36	0x409c448a	4.8833666
37	0x3fe2f74a	1.7731717
38	0x405b8af8	3.430357
39	0x3ddb46b5	0.10706846
40	0x40aa6349	5.32462
41	0x408918f0	4.284294
42	0xbed879c2	-0.42280394
43	0x40884d3d	4.2594285
44	0x40c0435f	6.008224
45	0xc02d5a40	-2.7086334
46	0x3f9bd7e2	1.2175257
47	0x4021404e	2.5195498
48	0x40959aa4	4.675127
49	0xc0b01a2f	-5.5031962
50	0x41073f3c	8.452938
51	0xc0d9872d	-6.797751
52	0xc101cf1a	-8.113062
53	0xc02c1013	-2.688481
54	0x4093409a	4.601636
55	0xc113b968	-9.232765
56	0x406096ea	3.509211
57	0xc0459d7a	-3.0877366
58	0x40ff406a	7.976613
59	0xc0a99a17	-5.30006
60	0x40941fc8	4.6288795
61	0x4099b3ad	4.803183
62	0x40b71905	5.721804
63	0x3d2cd1d3	0.04219229

bn2.weight f4 [64]
0	0x408f7083	4.4824843
1	0xc025ef55	-2.5927327
2	0x3fbd74ca	1.4801266
3	0x4067a808	3.6196308
4	0x40676ed7	3.6161401
5	0x4045cfb3	3.090802
6	0x40178286	2.3673415
7	0x3f374eba	0.716045
8	0x405bdb6f	3.4352682
9	0x408604a5	4.188067
10	0x3faaea68	1.3352785
11	0x3fc056d9	1.5026504
12	0x4014a7b3	2.3227355
13	0x4077c814	3.8715868
14	0x40556729	3.3344214
15	0x4089b4f8	4.303341
16	0xbf89b9e0	-1.075985
17	0x40b0c74b	5.5243278
18	0x3e885e87	0.2663462
19	0x406d85e3	3.7112968
20	0xbfb8bb7e	-1.4432218
21	0xbff49f43	-1.9111103
22	0xbf0f7832	-0.5604278
23	0x402a0c7f	2.6570127
24	0x40a097d3	5.018533
25	0x404f3977	3.2378824
26	0x4051d01d	3.2783272
27	0x409881df	4.7658534
28	0x403ea883	2.9790351
29	0x3fbadb25	1.4598128
30	0x40a72434	5.2231693
31	0xbfd8dddf	-1.694271
32	0x4055ce54	3.3407183
33	0xbd2c17c7	-0.042014863
34	0x4095801d	4.671889
35	0x3fde5703	1.7370304
36	0x3fb5f825	1.4216353
37	0x3f7a3a83	0.9774553
38	0x3eb742d6	0.3579318
39	0x405d7b80	3.4606628
40	0xbeaaa013	-0.33325252
41	0x4047252f	3.1116445
42	0x3fe3f962	1.781048
43	0x403e0de0	2.9695969
44	0x40047b94	2.0700426
45	0xc025e6d2	-2.5922132
46	0x3fd9540b	1.6978773
47	0x402f3b4d	2.7379944
48	0xc007ab33	-2.1198242
49	0x40b54f0a	5.6658983
50	0x40502ca9	3.2527258
51	0x40666811	3.6001017
52	0x4056289d	3.3462288
53	0x4001a7ab	2.0258586
54	0x3fd9b494	1.7008233
55	0x40883bd9	4.2573056
56	0xbfc79681	-1.5592805
57	0x405238eb	3.284724
58	0x40997f00	4.796753
59	0x3f9e8b17	1.2386197
60	0x3ffaa39e	1.9581182
61	0xbf78b7cb	-0.97155446
62	0x403a1433	2.9074829
63	0x3fedf16c	1.8589301

bn2.bias f4 [64]
0	0x3f6368ba	0.88831675
1	0x3f072977	0.52797645
2	0x3f0fe829	0.56213623
3	0x3fc733c6	1.5562675
4	0xc050218f	-3.2520483
5	0xbfee4b8e	-1.8616807
6	0xc0179fbc	-2.3691244
7	0xbe2eecd7	-0.17082535
8	0x4020767c	2.5072317
9	0x401525f1	2.3304408
10	0xbe6fa050	-0.23400998
11	0xbe092ca8	-0.13395941
12	0xbe4a722b	-0.19770114
13	0xbfde4fcf	-1.7368106
14	0xbfd83799	-1.6891967
15	0xc0605f25	-3.5058072
16	0x3f6a2e7e	0.9147719
17	0xbfe87354	-1.8160195
18	0xbf7ee79d	-0.99572164
19	0x404eff16	3.2343192
20	0x3f167d85	0.5878528
21	0xbe9dd5cb	-0.30827174
22	0x3f5a2154	0.85207105
23	0x3fab83a6	1.3399551
24	0x40591109	3.3916647
25	0xbfa360b9	-1.2763892
26	0x3ff56119	1.9170257
27	0x3f8b50f3	1.0884079
28	0x40279f6b	2.619105
29	0xbe451ac3	-0.1924849
30	0x3f19e917	0.6012129
31	0x3e85569a	0.26042634
32	0x4037e39c	2.8732672
33	0xbdcbe904	-0.099565536
34	0x404903d1	3.140858
35	0x3f2b5231	0.6692229
36	0xbf58dd90	-0.8471308
37	0x3dbd6669	0.09248049
38	0xbdf58c73	-0.11989679
39	0x3f5ef79f	0.8709659
40	0x3d9c5d57	0.07634991
41	0xc02fb766	-2.7455688
42	0xbf2a4d69	-0.6652437
43	0xc0227d90	-2.5389137
44	0xbf9ecc48	-1.2406092
45	0x3f955380	1.1666107
46	0x3ead4ca6	0.3384754
47	0xc004977a	-2.0717454
48	0x3c6aa9c1	0.014322699
49	0x3fe81c34	1.8133607
50	0xc06040af	-3.503948
51	0x40594b08	3.3952045
52	0x40400734	3.0004396
53	0x3fd32d6d	1.6498238
54	0x3ef0467f	0.46928784
55	0x4092c8ce	4.5870123
56	0xbdaa12fb	-0.083044015
57	0x3df40e80	0.11916828
58	0xc073a1c8	-3.8067493
59	0x3e8f8710	0.28032732
60	0x3ebd793f	0.37006566
61	0xbec7475e	-0.38921636
62	0xbfe096c1	-1.7546006
63	0x3d8b5df3	0.06805029

fc3.weight f4 [32, 64]
0	0xc0a6d5fb	-5.2136207
1	0xbf2f00fa	-0.68360865
2	0x3fb19b65	1.3875548
3	0x3f7f6168	0.99758005
4	0x3f921803	1.1413578
5	0xbfeece6f	-1.8656749
6	0xbf388b86	-0.72087896
7	0x3f0ef39d	0.55840474
8	0xc05567c2	-3.3344579
9	0xc0984415	-4.758311
10	0xbf83d7c0	-1.0300217
11	0x3f05eac5	0.52311355
12	0x3fea3561	1.829754
13	0x40306715	2.7562916
14	0xbfc72378	-1.5557699
15	0x3ee32ca7	0.44370005
16	0xbea54f43	-0.32287034
17	0xc0ac2762	-5.3798075
18	0xbff5c790	-1.9201527
19	0x40b3c80c	5.61817
20	0xbfa450f9	-1.2837211
21	0xbeea002b	-0.45703253
22	0xbcf2ea62	-0.029652778
23	0xbf951973	-1.1648391
24	0x3f91cd8f	1.1390857
25	0x401d5a1f	2.4586256
26	0xbfabe4ee	-1.3429239
27	0x401b0bd5	2.4225972
28	0xc021aae3	-2.526055
29	0x3ede05c4	0.43363774
30	0x4000d479	2.0129683
31	0x3e62b557	0.22139488
32	0xbf1d1b87	-0.6137013
33	0x3f368013	0.71289176
34	0xbef6990c	-0.4816364
35	0x3f8157a9	1.0104877
36	0x3e92f571	0.28702882
37	0xbf5626c5	-0.8365291
38	0x3f3ff3e0	0.749815
39	0x4029e52c	2.6546125
40	0xbe083268	-0.13300478
41	0x3ea8867b	0.329151
42	0x3f0f77d4	0.5604222
43	0x3cea34f7	0.028589709
44	0xbf0a32ac	-0.5398357
45	0x3f2fbf13	0.6865093
46	0x3fccf786	1.6013038
47	0x3fc15af8	1.5105886
48	0x3fcea92f	1.6145381
49	0x3e24a56c	0.16078728
50	0xbf65fc01	-0.8983765
51	0xbeaa7703	-0.33293924
52	0x400a36d6	2.159597
53	0x3fd8df4e	1.6943147
54	0x3f2bb7e6	0.6707748
55	0xbfb61bc4	-1.4227223
56	0x3fdf53eb	1.7447485
57	0xc0230ef8	-2.5477886
58	0x3ff730e5	1.9311796
59	0x3fb41987	1.407029
60	0xbf4f1c78	-0.80902815
61	0xbe07aeae	-0.13250229
62	0x3fffbb2f	1.9978999
63	0xbf90c1d7	-1.1309155
64	0x3f2e085d	0.6798151
65	0xc0227a37	-2.5387094
66	0xbf588c5f	-0.8458919
67	0xbfe15ed1	-1.7607061
68	0x404b6895	3.1782582
69	0x407a7eb6	3.9139838
70	0x40c1b9b4	6.053919
71	0xbe17fe07	-0.14842997
72	0x401c5443	2.442643
73	0xbe599b09	-0.21250547
74	0x3ed54811	0.41656545
75	0xbfbcfe40	-1.4765091
76	0x3e8fabd4	0.28060782
77	0x40f5dd0f	7.6832347
78	0x402c24ca	2.6897454
79	0x4011c7bf	2.2778165
80	0x3dd24c50	0.10268462
81	0xbfc77447	-1.558236
82	0x40058f87	2.0868852
83	0xc0a43df9	-5.132565
84	0xbfe58699	-1.7931701
85	0x401eb213	2.4796188
86	0xbf7b7dff	-0.9823913
87	0xbfc81379	-1.5630943
88	0xbf600869	-0.8751283
89	0x40637ca7	3.5544832
90	0xc0861e03	-4.1911635
91	0xbedf3883	-0.43597803
92	0xc0a6e204	-5.21509
93	0xbe0e4802	-0.13894656
94	0xc032a29f	-2.7911756
95	0xbf45c5aa	-0.77254736
96	0xc0bfe3a7	-5.9965396
97	0x3d5094b5	0.050923068
98	0xbfbec4d7	-1.4903821
99	0xbfcef5bf	-1.6168746
100	0x40102e9c	2.2528448
101	0xc0ad908a	-5.423894
102	0xbf19a81f	-0.6002216
103	0xc08f36b0	-4.4754257
104	0xbf49095b	-0.785299
105	0x40aa4750	5.321205
106	0x402ad7a4	2.6694117
107	0x40ee2388	7.4418373
108	0x40043af3	2.066098
109	0xc00576c7	-2.0853746
110	0x3f2032e2	0.6257764
111	0x3fe32e1d	1.7748448
112	0xbf4fad8f	-0.81124204
113	0x3f8bc992	1.0920889
114	0x3fe08c4a	1.7542813
115	0xc03ad323	-2.9191368
116	0xc0373f7d	-2.86325
117	0xc0776950	-3.8658028
118	0x3f9142a4	1.1348462
119	0xc0145cb3	-2.318158
120	0x3db08e5e	0.086209044
121	0x40e8a697	7.2703357
122	0x3fd83166	1.6890075
123	0x400085a7	2.0081575
124	0x3e8a299f	0.2698488
125	0xbf852f18	-1.0404997
126	0xc0962586	-4.6920805
127	0x3f966c4e	1.1751802
128	0xbf99d76a	-1.2018864
129	0x3f393cf8	0.72358656
130	0xbedbb624	-0.429124
131	0x3fcfb385	1.622666
132	0x3fa996fb	1.32492
133	0x40a57e13	5.17164
134	0xbf177092	-0.59156144
135	0xbf2a2965	-0.66469413
136	0x3ee323ee	0.4436335
137	0xc017fcc8	-2.3748035
138	0x3f0c848a	0.5488974
139	0x3f8cbcd8	1.099513
140	0x40158a21	2.3365557
141	0x3ffbe39e	1.9678838
142	0x40fe9210	7.95533
143	0x405a6226	3.4122405
144	0xbf051a52	-0.51993287
145	0x409b53e4	4.8539906
146	0xbd3784dd	-0.044804443
147	0xbf0428ad	-0.51624566
148	0x3d92a130	0.0715965
149	0xbf32a435	-0.6978181
150	0xbf338ac6	-0.70133626
151	0xc083a30f	-4.1136546
152	0xc0a0433a	-5.0082064
153	0x40b7a634	5.7390385
154	0xc0c6d0ba	-6.2129793
155	0xc0fb4f67	-7.8534427
156	0xbfa8d446	-1.3189781
157	0x3f1b8ecb	0.6076476
158	0xc02059a3	-2.505471
159	0xbee5b306	-0.44863147
160	0xbebb1df9	-0.36546305
161	0xc0769aff	-3.8532102
162	0xc08f19e0	-4.4719086
163	0x3ef6e2c5	0.48219886
164	0x401b986d	2.4311783
165	0x3ec1b3fd	0.37832633
166	0x3ead991d	0.3390588
167	0xbfe15241	-1.7603227
168	0x3dd499f7	0.10380929
169	0x3f81862e	1.0119073
170	0x3f49fb96	0.78899515
171	0xbfd85ca2	-1.6903269
172	0xbead6c65	-0.3387176
173	0x401808b3	2.375531
174	0xbf1be0cb	-0.6088988
175	0x3feb99cd	1.8406311
176	0x400567fd	2.084472
177	0xc08201e3	-4.0627303
178	0x3f50abbb	0.8151204
179	0xc01933f0	-2.393795
180	0xbe8aa561	-0.270793
181	0xbe22bcf7	-0.15892397
182	0x3fb8bb06	1.4432075
183	0xc0858391	-4.1723104
184	0x3ea30635	0.31840673
185	0xbf2251ce	-0.63406074
186	0x40778f74	3.8681307
187	0x3f2df9c1	0.6795922
188	0xbf140530	-0.57820415
189	0x3db3b15a	0.087740615
190	0x40b51c7d	5.6597276
191	0xc0e89fdf	-7.2695155
192	0x3fc9ed5b	1.577556
193	0x3efba06b	0.49145827
194	0x3edf8808	0.4365847
195	0x3ff8417d	1.9394985
196	0xc0841cd9	-4.1285214
197	0xc015e45a	-2.3420625
198	0xc0121118	-2.2822933
199	0x3e91ba34	0.28462374
200	0x3fad9aa4	1.3562818
201	0x3fab6186	1.3389137
202	0xbe075024	-0.13214165
203	0xbe076637	-0.13222586
204	0x3f58bd36	0.8466371
205	0xc05ac769	-3.418421
206	0xbed90599	-0.42387083
207	0xc0a6d628	-5.213642
208	0x3f12c276	0.57327974
209	0xc055b682	-3.3392644
210	0xbfb0407e	-1.3769681
211	0x4015a2d5	2.3380635
212	0x3ef50657	0.478564
213	0x3c31f495	0.010861536
214	0x3f24c850	0.6436815
215	0x401d109f	2.4541395
216	0x40e550ca	7.166112
217	0xbffbae9e	-1.9662664
218	0x404945f0	3.1448936
219	0xbfc64b65	-1.5491759
220	0x40ae1536	5.440089
221	0xbf260a81	-0.6485978
222	0x3f36cf62	0.7141019
223	0x3f05ce6a	0.5226809
224	0x4071e362	3.7795033
225	0xbe2c8273	-0.16846637
226	0x4073793f	3.8042753
227	0x3dfc7981	0.123278625
228	0xbf84d875	-1.0378557
229	0xbf2c5745	-0.6732066
230	0xbe236ee3	-0.15960269
231	0x3f9e1c84	1.2352452
232	0xbd9262e5	-0.07147769
233	0xc03ed36e	-2.9816546
234	0x3d2279eb	0.03966705
235	0xbf8765c0	-1.0577927
236	0xbfdf1e0c	-1.7431045
237	0x3f180658	0.5938468
238	0x3e8abe22	0.27098185
239	0xbf00c8ac	-0.503062
240	0xbf4caec1	-0.79954153
241	0x4023633f	2.5529325
242	0xc050d991	-3.2632792
243	0x4094eab7	4.6536517
244	0x40719e0e	3.775272
245	0x3f675679	0.9036632
246	0xbf65850e	-0.8965615
247	0x40b81269	5.7522473
248	0xbe5c8745	-0.21535976
249	0x3f6d2c1b	0.92645425
250	0xc0c47771	-6.1395802
251	0x3eefd103	0.4683915
252	0x3f4e3ee2	0.805647
253	0xbecd3093	-0.40076122
254	0xc03553ee	-2.8332477
255	0x3f30b2c2	0.6902276

fc3.bias f4 [32]
0	0x40022581	2.033539
1	0xbefd77ab	-0.49505362
2	0xbfc1a72f	-1.5129145
3	0x3f82f06a	1.0229619
4	0xc00a3477	-2.1594522
5	0x3f1cc881	0.61243445
6	0x3fa9d1f9	1.3267204
7	0xc08f4224	-4.476824
8	0xbfd83474	-1.6891007
9	0x407081cb	3.757922
10	0x402f88a6	2.7427154
11	0xbf6143b6	-0.87993944
12	0x400baaf1	2.1823084
13	0x3f7075df	0.93929857
14	0x400a6e81	2.1629946
15	0xbf294dca	-0.6613432
16	0xbfe223ab	-1.7667135
17	0x3efdc572	0.495647
18	0x3fceab42	1.6146014
19	0xc0428c1c	-3.0398016
20	0x4094493f	4.633941
21	0x3ed2b0fc	0.41150653
22	0x3ffadd5d	1.9598805
23	0x3fbc9c1d	1.4735142
24	0x4082b453	4.084512
25	0x402ebf53	2.7304275
26	0x3feb37f2	1.8376448
27	0xc04971fb	-3.1475818
28	0xc00447a0	-2.0668716
29	0x3fd6a38a	1.6768658
30	0x3f99f737	1.2028569
31	0x40951292	4.658517

bn3.weight f4 [32]
0	0x3ff00073	1.8750137
1	0x3eac63a9	0.33669785
2	0x3fbc6982	1.4719698
3	0x3feeb28c	1.8648238
4	0x3e8f6cba	0.2801264
5	0x3eb54a2e	0.35408157
6	0x3c39b162	0.011333795
7	0x4001d0ad	2.0283616
8	0x3fade2d0	1.3584843
9	0x3c66b6db	0.014081682
10	0x3dafbc5a	0.08580847
11	0x3fc1a186	1.5127418
12	0xbbbb8694	-0.00572283
13	0x3f593316	0.84843576
14	0xbe2fb54e	-0.17159006
15	0x3f808e62	1.0043452
16	0x3faac4b4	1.3341279
17	0x3fec741b	1.8472933
18	0x3f9df2fe	1.233978
19	0x40016a12	2.022099
20	0x3e903fa7	0.28173563
21	0x3f9b0690	1.2111378
22	0x3d86a0a7	0.06573611
23	0x3e4cf677	0.20015894
24	0x3e428645	0.18996532
25	0x3e9552ed	0.2916483
26	0x3e065305	0.13117607
27	0x3f95f595	1.1715571
28	0x3fb627a6	1.423085
29	0x3ea077dd	0.31341448
30	0x3e80b268	0.25136113
31	0x3dbba575	0.09162418

bn3.bias f4 [32]
0	0xc0818e05	-4.0485864
1	0xbf860378	-1.0469809
2	0xc01a1478	-2.4074993
3	0x3ed6ebb8	0.41976714
4	0xbf93e87a	-1.1555321
5	0xbf1f03ae	-0.6211499
6	0xbfd39355	-1.6529337
7	0xbe5f260e	-0.2179186
8	0xc01df77b	-2.46823
9	0xbf2753d9	-0.65362316
10	0xbf5607f2	-0.83605874
11	0xc047098c	-3.1099577
12	0xbf7e358c	-0.99300456
13	0xbfa556ed	-1.2917153
14	0xbfa3c9fa	-1.2796013
15	0xc01522e7	-2.3302553
16	0xc027dce7	-2.6228578
17	0xbfea7437	-1.8316716
18	0x3f254b92	0.64568436
19	0xbf62470a	-0.88389647
20	0xbf27a895	-0.6549161
21	0xc0272a05	-2.6119397
22	0xbeb5e7a7	-0.355283
23	0xbf0ba80b	-0.5455329
24	0xbf8c94eb	-1.0982946
25	0xbf9307c1	-1.1486741
26	0xbf4edd92	-0.8080684
27	0xc0167d31	-2.351391
28	0xbfee8116	-1.8633144
29	0xbf4b6aeb	-0.7946002
30	0xbf11790d	-0.56825334
31	0xbf8a822d	-1.0820976

action_value.weight f4 [32, 2]
0	0xbfcdaf70	-1.6069164
1	0x3f73d6f1	0.9524985
2	0xbe199a5c	-0.1500029
3	0xbd38b080	-0.0450902
4	0x3d419c59	0.047268245
5	0xbf88fa10	-1.0701313
6	0x3a225316	0.00061921903
7	0xbda1a256	-0.07892291
8	0xbe70bd44	-0.23509699
9	0x3c165ae3	0.0091769425
10	0x3e99a74a	0.30010444
11	0x3e34ad35	0.17644198
12	0xbedc1a5f	-0.4298887
13	0xb94efbc1	-0.00019739477
14	0xbd12a5f6	-0.035802804
15	0x3d6292c6	0.055315755
16	0x3f53e5ea	0.82772696
17	0x3e21b685	0.15792282
18	0xbde8c066	-0.11364822
19	0xbdad9846	-0.084763095
20	0xbde73769	-0.112898655
21	0x3e19ef71	0.15032746
22	0xbebe2ce2	-0.37143618
23	0xbf085d95	-0.53267795
24	0x3d609b40	0.054835558
25	0x3df56258	0.11981648
26	0x3b7e1d13	0.0038774654
27	0xbcac40df	-0.021027027
28	0xbe8acb5f	-0.27108285
29	0xbe7d4cde	-0.24736354
30	0xbde45bd7	-0.111503296
31	0xbe29fab7	-0.16599546
32	0xbe9be2a6	-0.30446357
33	0x3fa6722d	1.3003594
34	0xbc4f23df	-0.01264283
35	0x3d4befd6	0.049789272
36	0x3e620879	0.22073545
37	0x3da753a9	0.08170254
38	0x3e1b9145	0.15192135
39	0x3b2eff18	0.002670234
40	0xbd5ad9a0	-0.0534302
41	0xbe289a59	-0.16465129
42	0xbfa6edf8	-1.3041372
43	0xbcc50429	-0.024049835
44	0x3de16a33	0.11006584
45	0xbd66bbbb	-0.056331377
46	0xbe4a7cc8	-0.19774163
47	0xbd7defc4	-0.061996236
48	0x3deab1d5	0.114597
49	0x3d512a73	0.051065873
50	0x3ce9b002	0.02852631
51	0x3ddb3294	0.107030064
52	0x3e8eff8e	0.27929348
53	0xbead8873	-0.33893165
54	0x3f726c45	0.94696456
55	0xbf2b4d64	-0.66914964
56	0xbcd7e2e4	-0.026353307
57	0xbe223223	-0.15839438
58	0x3e416f82	0.18890193
59	0x3cbb9cf3	0.022901988
60	0xbe5f5883	-0.21811108
61	0xbe957e54	-0.29197943
62	0x39eb8d82	0.00044928124
63	0x3e430d22	0.19047979

action_value.bias f4 [32]
0	0x3daa75a4	0.083232194
1	0xbf2eb32b	-0.6824214
2	0x3ff4d695	1.9127985
3	0xbeef4530	-0.46732473
4	0xbf14ca57	-0.58121246
5	0xbf0d95a7	-0.55306476
6	0xbf1ef585	-0.62093383
7	0xbf1e46ba	-0.6182667
8	0x4012efcf	2.2958868
9	0xbf292874	-0.6607735
10	0xbf31605c	-0.6928766
11	0x3f7099bb	0.93984574
12	0xbee34b74	-0.44393504
13	0xbd930d10	-0.07180226
14	0xbf2fafec	-0.6862781
15	0xbef1ab3f	-0.47200963
16	0x401ada1f	2.419563
17	0xbf7c93ac	-0.9866283
18	0xbf25a163	-0.6469938
19	0xbf76153b	-0.96126145
20	0xbf414049	-0.75488716
21	0x400c904f	2.196308
22	0xbf599556	-0.84993494
23	0xbec9b908	-0.3939898
24	0xbe4701c3	-0.19434266
25	0xbe50794f	-0.20358776
26	0xbe7ee582	-0.24892238
27	0x400db309	2.2140524
28	0xbee6c1fa	-0.45069867
29	0xbe7ed5d7	-0.24886261
30	0xbf1b4bd6	-0.6066259
31	0xbe6125ec	-0.21987122

q.weight f4 [1, 32]
0	0xbfff32b9	-1.9937354
1	0xbc06f24a	-0.008236477
2	0x3f0c7f74	0.5488198
3	0xbf68955b	-0.908529
4	0xbe52997b	-0.2056636
5	0xbc94b84f	-0.018154291
6	0x3e86ec01	0.26351932
7	0xbf01d942	-0.50722134
8	0x3eec6731	0.4617248
9	0xba4d1bba	-0.0007824261
10	0x3d10e3db	0.03537355
11	0x3f28a72a	0.6588007
12	0x3ea1e3bd	0.31619063
13	0xbf1a8be9	-0.60369736
14	0xbd2896a2	-0.04115928
15	0x3ed6fe00	0.41990662
16	0x3f39bce1	0.7255383
17	0x3fac2290	1.3448048
18	0xbf0fea70	-0.562171
19	0x3f49b33d	0.7878912
20	0xbd35afd5	-0.04435714
21	0x3f16e72c	0.5894649
22	0xbcea40d2	-0.028595362
23	0x3ba33696	0.0049808724
24	0x3e46e8a4	0.19424683
25	0xbda77218	-0.081760585
26	0x3cb5a9b8	0.022175655
27	0x3f1e1dbf	0.6176414
28	0x3f7656d8	0.96226263
29	0xbc9ad3e4	-0.018899865
30	0xbc0c4b13	-0.008562821
31	0x3de859ee	0.11345278
